{"format": "graph-model", "generatedBy": "2.10.0", "convertedBy": "TensorFlow.js Converter v4.0.0", "signature": {"inputs": {"xception_input": {"name": "xception_input:0", "dtype": "DT_FLOAT", "tensorShape": {"dim": [{"size": "-1"}, {"size": "-1"}, {"size": "-1"}, {"size": "3"}]}}}, "outputs": {"dense_12": {"name": "Identity:0", "dtype": "DT_FLOAT", "tensorShape": {"dim": [{"size": "-1"}, {"size": "85"}]}}}}, "modelTopology": {"node": [{"name": "StatefulPartitionedCall/sequential_5/xception/block13_sepconv1/separable_conv2d/ReadVariableOp", "op": "Const", "attr": {"value": {"tensor": {"dtype": "DT_FLOAT", "tensorShape": {"dim": [{"size": "3"}, {"size": "3"}, {"size": "728"}, {"size": "1"}]}}}, "dtype": {"type": "DT_FLOAT"}}}, {"name": "StatefulPartitionedCall/sequential_5/xception/block13_sepconv2/separable_conv2d/ReadVariableOp", "op": "Const", "attr": {"value": {"tensor": {"dtype": "DT_FLOAT", "tensorShape": {"dim": [{"size": "3"}, {"size": "3"}, {"size": "728"}, {"size": "1"}]}}}, "dtype": {"type": "DT_FLOAT"}}}, {"name": "StatefulPartitionedCall/sequential_5/xception/block12_sepconv1/separable_conv2d/ReadVariableOp", "op": "Const", "attr": {"value": {"tensor": {"dtype": "DT_FLOAT", "tensorShape": {"dim": [{"size": "3"}, {"size": "3"}, {"size": "728"}, {"size": "1"}]}}}, "dtype": {"type": "DT_FLOAT"}}}, {"name": "StatefulPartitionedCall/sequential_5/xception/block12_sepconv2/separable_conv2d/ReadVariableOp", "op": "Const", "attr": {"value": {"tensor": {"dtype": "DT_FLOAT", "tensorShape": {"dim": [{"size": "3"}, {"size": "3"}, {"size": "728"}, {"size": "1"}]}}}, "dtype": {"type": "DT_FLOAT"}}}, {"name": "StatefulPartitionedCall/sequential_5/xception/block12_sepconv3/separable_conv2d/ReadVariableOp", "op": "Const", "attr": {"value": {"tensor": {"dtype": "DT_FLOAT", "tensorShape": {"dim": [{"size": "3"}, {"size": "3"}, {"size": "728"}, {"size": "1"}]}}}, "dtype": {"type": "DT_FLOAT"}}}, {"name": "StatefulPartitionedCall/sequential_5/xception/block11_sepconv1/separable_conv2d/ReadVariableOp", "op": "Const", "attr": {"value": {"tensor": {"dtype": "DT_FLOAT", "tensorShape": {"dim": [{"size": "3"}, {"size": "3"}, {"size": "728"}, {"size": "1"}]}}}, "dtype": {"type": "DT_FLOAT"}}}, {"name": "StatefulPartitionedCall/sequential_5/xception/block11_sepconv2/separable_conv2d/ReadVariableOp", "op": "Const", "attr": {"value": {"tensor": {"dtype": "DT_FLOAT", "tensorShape": {"dim": [{"size": "3"}, {"size": "3"}, {"size": "728"}, {"size": "1"}]}}}, "dtype": {"type": "DT_FLOAT"}}}, {"name": "StatefulPartitionedCall/sequential_5/xception/block11_sepconv3/separable_conv2d/ReadVariableOp", "op": "Const", "attr": {"value": {"tensor": {"dtype": "DT_FLOAT", "tensorShape": {"dim": [{"size": "3"}, {"size": "3"}, {"size": "728"}, {"size": "1"}]}}}, "dtype": {"type": "DT_FLOAT"}}}, {"name": "StatefulPartitionedCall/sequential_5/xception/block10_sepconv1/separable_conv2d/ReadVariableOp", "op": "Const", "attr": {"value": {"tensor": {"dtype": "DT_FLOAT", "tensorShape": {"dim": [{"size": "3"}, {"size": "3"}, {"size": "728"}, {"size": "1"}]}}}, "dtype": {"type": "DT_FLOAT"}}}, {"name": "StatefulPartitionedCall/sequential_5/xception/block10_sepconv2/separable_conv2d/ReadVariableOp", "op": "Const", "attr": {"value": {"tensor": {"dtype": "DT_FLOAT", "tensorShape": {"dim": [{"size": "3"}, {"size": "3"}, {"size": "728"}, {"size": "1"}]}}}, "dtype": {"type": "DT_FLOAT"}}}, {"name": "StatefulPartitionedCall/sequential_5/xception/block10_sepconv3/separable_conv2d/ReadVariableOp", "op": "Const", "attr": {"value": {"tensor": {"dtype": "DT_FLOAT", "tensorShape": {"dim": [{"size": "3"}, {"size": "3"}, {"size": "728"}, {"size": "1"}]}}}, "dtype": {"type": "DT_FLOAT"}}}, {"name": "StatefulPartitionedCall/sequential_5/xception/block9_sepconv1/separable_conv2d/ReadVariableOp", "op": "Const", "attr": {"value": {"tensor": {"dtype": "DT_FLOAT", "tensorShape": {"dim": [{"size": "3"}, {"size": "3"}, {"size": "728"}, {"size": "1"}]}}}, "dtype": {"type": "DT_FLOAT"}}}, {"name": "StatefulPartitionedCall/sequential_5/xception/block9_sepconv2/separable_conv2d/ReadVariableOp", "op": "Const", "attr": {"value": {"tensor": {"dtype": "DT_FLOAT", "tensorShape": {"dim": [{"size": "3"}, {"size": "3"}, {"size": "728"}, {"size": "1"}]}}}, "dtype": {"type": "DT_FLOAT"}}}, {"name": "StatefulPartitionedCall/sequential_5/xception/block9_sepconv3/separable_conv2d/ReadVariableOp", "op": "Const", "attr": {"value": {"tensor": {"dtype": "DT_FLOAT", "tensorShape": {"dim": [{"size": "3"}, {"size": "3"}, {"size": "728"}, {"size": "1"}]}}}, "dtype": {"type": "DT_FLOAT"}}}, {"name": "StatefulPartitionedCall/sequential_5/xception/block8_sepconv1/separable_conv2d/ReadVariableOp", "op": "Const", "attr": {"value": {"tensor": {"dtype": "DT_FLOAT", "tensorShape": {"dim": [{"size": "3"}, {"size": "3"}, {"size": "728"}, {"size": "1"}]}}}, "dtype": {"type": "DT_FLOAT"}}}, {"name": "StatefulPartitionedCall/sequential_5/xception/block8_sepconv2/separable_conv2d/ReadVariableOp", "op": "Const", "attr": {"value": {"tensor": {"dtype": "DT_FLOAT", "tensorShape": {"dim": [{"size": "3"}, {"size": "3"}, {"size": "728"}, {"size": "1"}]}}}, "dtype": {"type": "DT_FLOAT"}}}, {"name": "StatefulPartitionedCall/sequential_5/xception/block8_sepconv3/separable_conv2d/ReadVariableOp", "op": "Const", "attr": {"value": {"tensor": {"dtype": "DT_FLOAT", "tensorShape": {"dim": [{"size": "3"}, {"size": "3"}, {"size": "728"}, {"size": "1"}]}}}, "dtype": {"type": "DT_FLOAT"}}}, {"name": "StatefulPartitionedCall/sequential_5/xception/block7_sepconv1/separable_conv2d/ReadVariableOp", "op": "Const", "attr": {"value": {"tensor": {"dtype": "DT_FLOAT", "tensorShape": {"dim": [{"size": "3"}, {"size": "3"}, {"size": "728"}, {"size": "1"}]}}}, "dtype": {"type": "DT_FLOAT"}}}, {"name": "StatefulPartitionedCall/sequential_5/xception/block7_sepconv2/separable_conv2d/ReadVariableOp", "op": "Const", "attr": {"value": {"tensor": {"dtype": "DT_FLOAT", "tensorShape": {"dim": [{"size": "3"}, {"size": "3"}, {"size": "728"}, {"size": "1"}]}}}, "dtype": {"type": "DT_FLOAT"}}}, {"name": "StatefulPartitionedCall/sequential_5/xception/block7_sepconv3/separable_conv2d/ReadVariableOp", "op": "Const", "attr": {"value": {"tensor": {"dtype": "DT_FLOAT", "tensorShape": {"dim": [{"size": "3"}, {"size": "3"}, {"size": "728"}, {"size": "1"}]}}}, "dtype": {"type": "DT_FLOAT"}}}, {"name": "StatefulPartitionedCall/sequential_5/xception/block6_sepconv1/separable_conv2d/ReadVariableOp", "op": "Const", "attr": {"value": {"tensor": {"dtype": "DT_FLOAT", "tensorShape": {"dim": [{"size": "3"}, {"size": "3"}, {"size": "728"}, {"size": "1"}]}}}, "dtype": {"type": "DT_FLOAT"}}}, {"name": "StatefulPartitionedCall/sequential_5/xception/block6_sepconv2/separable_conv2d/ReadVariableOp", "op": "Const", "attr": {"value": {"tensor": {"dtype": "DT_FLOAT", "tensorShape": {"dim": [{"size": "3"}, {"size": "3"}, {"size": "728"}, {"size": "1"}]}}}, "dtype": {"type": "DT_FLOAT"}}}, {"name": "StatefulPartitionedCall/sequential_5/xception/block6_sepconv3/separable_conv2d/ReadVariableOp", "op": "Const", "attr": {"value": {"tensor": {"dtype": "DT_FLOAT", "tensorShape": {"dim": [{"size": "3"}, {"size": "3"}, {"size": "728"}, {"size": "1"}]}}}, "dtype": {"type": "DT_FLOAT"}}}, {"name": "StatefulPartitionedCall/sequential_5/xception/block5_sepconv1/separable_conv2d/ReadVariableOp", "op": "Const", "attr": {"value": {"tensor": {"dtype": "DT_FLOAT", "tensorShape": {"dim": [{"size": "3"}, {"size": "3"}, {"size": "728"}, {"size": "1"}]}}}, "dtype": {"type": "DT_FLOAT"}}}, {"name": "StatefulPartitionedCall/sequential_5/xception/block5_sepconv2/separable_conv2d/ReadVariableOp", "op": "Const", "attr": {"value": {"tensor": {"dtype": "DT_FLOAT", "tensorShape": {"dim": [{"size": "3"}, {"size": "3"}, {"size": "728"}, {"size": "1"}]}}}, "dtype": {"type": "DT_FLOAT"}}}, {"name": "StatefulPartitionedCall/sequential_5/xception/block5_sepconv3/separable_conv2d/ReadVariableOp", "op": "Const", "attr": {"value": {"tensor": {"dtype": "DT_FLOAT", "tensorShape": {"dim": [{"size": "3"}, {"size": "3"}, {"size": "728"}, {"size": "1"}]}}}, "dtype": {"type": "DT_FLOAT"}}}, {"name": "StatefulPartitionedCall/sequential_5/xception/block4_sepconv1/separable_conv2d/ReadVariableOp", "op": "Const", "attr": {"value": {"tensor": {"dtype": "DT_FLOAT", "tensorShape": {"dim": [{"size": "3"}, {"size": "3"}, {"size": "256"}, {"size": "1"}]}}}, "dtype": {"type": "DT_FLOAT"}}}, {"name": "StatefulPartitionedCall/sequential_5/xception/block4_sepconv2/separable_conv2d/ReadVariableOp", "op": "Const", "attr": {"value": {"tensor": {"dtype": "DT_FLOAT", "tensorShape": {"dim": [{"size": "3"}, {"size": "3"}, {"size": "728"}, {"size": "1"}]}}}, "dtype": {"type": "DT_FLOAT"}}}, {"name": "StatefulPartitionedCall/sequential_5/xception/block3_sepconv1/separable_conv2d/ReadVariableOp", "op": "Const", "attr": {"value": {"tensor": {"dtype": "DT_FLOAT", "tensorShape": {"dim": [{"size": "3"}, {"size": "3"}, {"size": "128"}, {"size": "1"}]}}}, "dtype": {"type": "DT_FLOAT"}}}, {"name": "StatefulPartitionedCall/sequential_5/xception/block3_sepconv2/separable_conv2d/ReadVariableOp", "op": "Const", "attr": {"value": {"tensor": {"dtype": "DT_FLOAT", "tensorShape": {"dim": [{"size": "3"}, {"size": "3"}, {"size": "256"}, {"size": "1"}]}}}, "dtype": {"type": "DT_FLOAT"}}}, {"name": "StatefulPartitionedCall/sequential_5/xception/block2_sepconv1/separable_conv2d/ReadVariableOp", "op": "Const", "attr": {"value": {"tensor": {"dtype": "DT_FLOAT", "tensorShape": {"dim": [{"size": "3"}, {"size": "3"}, {"size": "64"}, {"size": "1"}]}}}, "dtype": {"type": "DT_FLOAT"}}}, {"name": "StatefulPartitionedCall/sequential_5/xception/block2_sepconv2/separable_conv2d/ReadVariableOp", "op": "Const", "attr": {"value": {"tensor": {"dtype": "DT_FLOAT", "tensorShape": {"dim": [{"size": "3"}, {"size": "3"}, {"size": "128"}, {"size": "1"}]}}}, "dtype": {"type": "DT_FLOAT"}}}, {"name": "StatefulPartitionedCall/sequential_5/xception/block14_sepconv1/separable_conv2d/ReadVariableOp", "op": "Const", "attr": {"value": {"tensor": {"dtype": "DT_FLOAT", "tensorShape": {"dim": [{"size": "3"}, {"size": "3"}, {"size": "1024"}, {"size": "1"}]}}}, "dtype": {"type": "DT_FLOAT"}}}, {"name": "StatefulPartitionedCall/sequential_5/xception/block14_sepconv2/separable_conv2d/ReadVariableOp", "op": "Const", "attr": {"value": {"tensor": {"dtype": "DT_FLOAT", "tensorShape": {"dim": [{"size": "3"}, {"size": "3"}, {"size": "1536"}, {"size": "1"}]}}}, "dtype": {"type": "DT_FLOAT"}}}, {"name": "StatefulPartitionedCall/sequential_5/xception/global_max_pooling2d_1/Max/reduction_indices", "op": "Const", "attr": {"value": {"tensor": {"dtype": "DT_INT32", "tensorShape": {"dim": [{"size": "2"}]}}}, "dtype": {"type": "DT_INT32"}}}, {"name": "StatefulPartitionedCall/sequential_5/dense_11/MatMul/ReadVariableOp", "op": "Const", "attr": {"value": {"tensor": {"dtype": "DT_FLOAT", "tensorShape": {"dim": [{"size": "2048"}, {"size": "1024"}]}}}, "dtype": {"type": "DT_FLOAT"}}}, {"name": "StatefulPartitionedCall/sequential_5/dense_11/BiasAdd/ReadVariableOp", "op": "Const", "attr": {"value": {"tensor": {"dtype": "DT_FLOAT", "tensorShape": {"dim": [{"size": "1024"}]}}}, "dtype": {"type": "DT_FLOAT"}}}, {"name": "StatefulPartitionedCall/sequential_5/dense_12/MatMul/ReadVariableOp", "op": "Const", "attr": {"value": {"tensor": {"dtype": "DT_FLOAT", "tensorShape": {"dim": [{"size": "1024"}, {"size": "85"}]}}}, "dtype": {"type": "DT_FLOAT"}}}, {"name": "StatefulPartitionedCall/sequential_5/dense_12/BiasAdd/ReadVariableOp", "op": "Const", "attr": {"value": {"tensor": {"dtype": "DT_FLOAT", "tensorShape": {"dim": [{"size": "85"}]}}}, "dtype": {"type": "DT_FLOAT"}}}, {"name": "xception_input", "op": "Placeholder", "attr": {"shape": {"shape": {"dim": [{"size": "-1"}, {"size": "-1"}, {"size": "-1"}, {"size": "3"}]}}, "dtype": {"type": "DT_FLOAT"}}}, {"name": "StatefulPartitionedCall/sequential_5/xception/block1_conv1/Conv2D_weights", "op": "Const", "attr": {"value": {"tensor": {"dtype": "DT_FLOAT", "tensorShape": {"dim": [{"size": "3"}, {"size": "3"}, {"size": "3"}, {"size": "32"}]}}}, "dtype": {"type": "DT_FLOAT"}}}, {"name": "StatefulPartitionedCall/sequential_5/xception/block11_sepconv2/separable_conv2d_weights", "op": "Const", "attr": {"value": {"tensor": {"dtype": "DT_FLOAT", "tensorShape": {"dim": [{"size": "1"}, {"size": "1"}, {"size": "728"}, {"size": "728"}]}}}, "dtype": {"type": "DT_FLOAT"}}}, {"name": "StatefulPartitionedCall/sequential_5/xception/block1_conv1/Conv2D_bn_offset", "op": "Const", "attr": {"value": {"tensor": {"dtype": "DT_FLOAT", "tensorShape": {"dim": [{"size": "32"}]}}}, "dtype": {"type": "DT_FLOAT"}}}, {"name": "StatefulPartitionedCall/sequential_5/xception/block1_conv2/Conv2D_weights", "op": "Const", "attr": {"value": {"tensor": {"dtype": "DT_FLOAT", "tensorShape": {"dim": [{"size": "3"}, {"size": "3"}, {"size": "32"}, {"size": "64"}]}}}, "dtype": {"type": "DT_FLOAT"}}}, {"name": "StatefulPartitionedCall/sequential_5/xception/block11_sepconv2/separable_conv2d_bn_offset", "op": "Const", "attr": {"value": {"tensor": {"dtype": "DT_FLOAT", "tensorShape": {"dim": [{"size": "728"}]}}}, "dtype": {"type": "DT_FLOAT"}}}, {"name": "StatefulPartitionedCall/sequential_5/xception/block1_conv2/Conv2D_bn_offset", "op": "Const", "attr": {"value": {"tensor": {"dtype": "DT_FLOAT", "tensorShape": {"dim": [{"size": "64"}]}}}, "dtype": {"type": "DT_FLOAT"}}}, {"name": "StatefulPartitionedCall/sequential_5/xception/block14_sepconv1/separable_conv2d_weights", "op": "Const", "attr": {"value": {"tensor": {"dtype": "DT_FLOAT", "tensorShape": {"dim": [{"size": "1"}, {"size": "1"}, {"size": "1024"}, {"size": "1536"}]}}}, "dtype": {"type": "DT_FLOAT"}}}, {"name": "StatefulPartitionedCall/sequential_5/xception/conv2d_4/Conv2D_weights", "op": "Const", "attr": {"value": {"tensor": {"dtype": "DT_FLOAT", "tensorShape": {"dim": [{"size": "1"}, {"size": "1"}, {"size": "64"}, {"size": "128"}]}}}, "dtype": {"type": "DT_FLOAT"}}}, {"name": "StatefulPartitionedCall/sequential_5/xception/conv2d_4/Conv2D_bn_offset", "op": "Const", "attr": {"value": {"tensor": {"dtype": "DT_FLOAT", "tensorShape": {"dim": [{"size": "128"}]}}}, "dtype": {"type": "DT_FLOAT"}}}, {"name": "StatefulPartitionedCall/sequential_5/xception/block2_sepconv1/separable_conv2d_weights", "op": "Const", "attr": {"value": {"tensor": {"dtype": "DT_FLOAT", "tensorShape": {"dim": [{"size": "1"}, {"size": "1"}, {"size": "64"}, {"size": "128"}]}}}, "dtype": {"type": "DT_FLOAT"}}}, {"name": "StatefulPartitionedCall/sequential_5/xception/block2_sepconv1/separable_conv2d_bn_offset", "op": "Const", "attr": {"value": {"tensor": {"dtype": "DT_FLOAT", "tensorShape": {"dim": [{"size": "128"}]}}}, "dtype": {"type": "DT_FLOAT"}}}, {"name": "StatefulPartitionedCall/sequential_5/xception/block11_sepconv3/separable_conv2d_weights", "op": "Const", "attr": {"value": {"tensor": {"dtype": "DT_FLOAT", "tensorShape": {"dim": [{"size": "1"}, {"size": "1"}, {"size": "728"}, {"size": "728"}]}}}, "dtype": {"type": "DT_FLOAT"}}}, {"name": "StatefulPartitionedCall/sequential_5/xception/block2_sepconv2/separable_conv2d_weights", "op": "Const", "attr": {"value": {"tensor": {"dtype": "DT_FLOAT", "tensorShape": {"dim": [{"size": "1"}, {"size": "1"}, {"size": "128"}, {"size": "128"}]}}}, "dtype": {"type": "DT_FLOAT"}}}, {"name": "StatefulPartitionedCall/sequential_5/xception/block2_sepconv2/separable_conv2d_bn_offset", "op": "Const", "attr": {"value": {"tensor": {"dtype": "DT_FLOAT", "tensorShape": {"dim": [{"size": "128"}]}}}, "dtype": {"type": "DT_FLOAT"}}}, {"name": "StatefulPartitionedCall/sequential_5/xception/conv2d_5/Conv2D_weights", "op": "Const", "attr": {"value": {"tensor": {"dtype": "DT_FLOAT", "tensorShape": {"dim": [{"size": "1"}, {"size": "1"}, {"size": "128"}, {"size": "256"}]}}}, "dtype": {"type": "DT_FLOAT"}}}, {"name": "StatefulPartitionedCall/sequential_5/xception/block11_sepconv3/separable_conv2d_bn_offset", "op": "Const", "attr": {"value": {"tensor": {"dtype": "DT_FLOAT", "tensorShape": {"dim": [{"size": "728"}]}}}, "dtype": {"type": "DT_FLOAT"}}}, {"name": "StatefulPartitionedCall/sequential_5/xception/conv2d_5/Conv2D_bn_offset", "op": "Const", "attr": {"value": {"tensor": {"dtype": "DT_FLOAT", "tensorShape": {"dim": [{"size": "256"}]}}}, "dtype": {"type": "DT_FLOAT"}}}, {"name": "StatefulPartitionedCall/sequential_5/xception/block3_sepconv1/separable_conv2d_weights", "op": "Const", "attr": {"value": {"tensor": {"dtype": "DT_FLOAT", "tensorShape": {"dim": [{"size": "1"}, {"size": "1"}, {"size": "128"}, {"size": "256"}]}}}, "dtype": {"type": "DT_FLOAT"}}}, {"name": "StatefulPartitionedCall/sequential_5/xception/block3_sepconv1/separable_conv2d_bn_offset", "op": "Const", "attr": {"value": {"tensor": {"dtype": "DT_FLOAT", "tensorShape": {"dim": [{"size": "256"}]}}}, "dtype": {"type": "DT_FLOAT"}}}, {"name": "StatefulPartitionedCall/sequential_5/xception/block3_sepconv2/separable_conv2d_weights", "op": "Const", "attr": {"value": {"tensor": {"dtype": "DT_FLOAT", "tensorShape": {"dim": [{"size": "1"}, {"size": "1"}, {"size": "256"}, {"size": "256"}]}}}, "dtype": {"type": "DT_FLOAT"}}}, {"name": "StatefulPartitionedCall/sequential_5/xception/block3_sepconv2/separable_conv2d_bn_offset", "op": "Const", "attr": {"value": {"tensor": {"dtype": "DT_FLOAT", "tensorShape": {"dim": [{"size": "256"}]}}}, "dtype": {"type": "DT_FLOAT"}}}, {"name": "StatefulPartitionedCall/sequential_5/xception/conv2d_6/Conv2D_weights", "op": "Const", "attr": {"value": {"tensor": {"dtype": "DT_FLOAT", "tensorShape": {"dim": [{"size": "1"}, {"size": "1"}, {"size": "256"}, {"size": "728"}]}}}, "dtype": {"type": "DT_FLOAT"}}}, {"name": "StatefulPartitionedCall/sequential_5/xception/conv2d_6/Conv2D_bn_offset", "op": "Const", "attr": {"value": {"tensor": {"dtype": "DT_FLOAT", "tensorShape": {"dim": [{"size": "728"}]}}}, "dtype": {"type": "DT_FLOAT"}}}, {"name": "StatefulPartitionedCall/sequential_5/xception/block4_sepconv1/separable_conv2d_weights", "op": "Const", "attr": {"value": {"tensor": {"dtype": "DT_FLOAT", "tensorShape": {"dim": [{"size": "1"}, {"size": "1"}, {"size": "256"}, {"size": "728"}]}}}, "dtype": {"type": "DT_FLOAT"}}}, {"name": "StatefulPartitionedCall/sequential_5/xception/block12_sepconv1/separable_conv2d_weights", "op": "Const", "attr": {"value": {"tensor": {"dtype": "DT_FLOAT", "tensorShape": {"dim": [{"size": "1"}, {"size": "1"}, {"size": "728"}, {"size": "728"}]}}}, "dtype": {"type": "DT_FLOAT"}}}, {"name": "StatefulPartitionedCall/sequential_5/xception/block4_sepconv1/separable_conv2d_bn_offset", "op": "Const", "attr": {"value": {"tensor": {"dtype": "DT_FLOAT", "tensorShape": {"dim": [{"size": "728"}]}}}, "dtype": {"type": "DT_FLOAT"}}}, {"name": "StatefulPartitionedCall/sequential_5/xception/block14_sepconv1/separable_conv2d_bn_offset", "op": "Const", "attr": {"value": {"tensor": {"dtype": "DT_FLOAT", "tensorShape": {"dim": [{"size": "1536"}]}}}, "dtype": {"type": "DT_FLOAT"}}}, {"name": "StatefulPartitionedCall/sequential_5/xception/block4_sepconv2/separable_conv2d_weights", "op": "Const", "attr": {"value": {"tensor": {"dtype": "DT_FLOAT", "tensorShape": {"dim": [{"size": "1"}, {"size": "1"}, {"size": "728"}, {"size": "728"}]}}}, "dtype": {"type": "DT_FLOAT"}}}, {"name": "StatefulPartitionedCall/sequential_5/xception/block12_sepconv1/separable_conv2d_bn_offset", "op": "Const", "attr": {"value": {"tensor": {"dtype": "DT_FLOAT", "tensorShape": {"dim": [{"size": "728"}]}}}, "dtype": {"type": "DT_FLOAT"}}}, {"name": "StatefulPartitionedCall/sequential_5/xception/block4_sepconv2/separable_conv2d_bn_offset", "op": "Const", "attr": {"value": {"tensor": {"dtype": "DT_FLOAT", "tensorShape": {"dim": [{"size": "728"}]}}}, "dtype": {"type": "DT_FLOAT"}}}, {"name": "StatefulPartitionedCall/sequential_5/xception/block5_sepconv1/separable_conv2d_weights", "op": "Const", "attr": {"value": {"tensor": {"dtype": "DT_FLOAT", "tensorShape": {"dim": [{"size": "1"}, {"size": "1"}, {"size": "728"}, {"size": "728"}]}}}, "dtype": {"type": "DT_FLOAT"}}}, {"name": "StatefulPartitionedCall/sequential_5/xception/block5_sepconv1/separable_conv2d_bn_offset", "op": "Const", "attr": {"value": {"tensor": {"dtype": "DT_FLOAT", "tensorShape": {"dim": [{"size": "728"}]}}}, "dtype": {"type": "DT_FLOAT"}}}, {"name": "StatefulPartitionedCall/sequential_5/xception/block5_sepconv2/separable_conv2d_weights", "op": "Const", "attr": {"value": {"tensor": {"dtype": "DT_FLOAT", "tensorShape": {"dim": [{"size": "1"}, {"size": "1"}, {"size": "728"}, {"size": "728"}]}}}, "dtype": {"type": "DT_FLOAT"}}}, {"name": "StatefulPartitionedCall/sequential_5/xception/block5_sepconv2/separable_conv2d_bn_offset", "op": "Const", "attr": {"value": {"tensor": {"dtype": "DT_FLOAT", "tensorShape": {"dim": [{"size": "728"}]}}}, "dtype": {"type": "DT_FLOAT"}}}, {"name": "StatefulPartitionedCall/sequential_5/xception/block12_sepconv2/separable_conv2d_weights", "op": "Const", "attr": {"value": {"tensor": {"dtype": "DT_FLOAT", "tensorShape": {"dim": [{"size": "1"}, {"size": "1"}, {"size": "728"}, {"size": "728"}]}}}, "dtype": {"type": "DT_FLOAT"}}}, {"name": "StatefulPartitionedCall/sequential_5/xception/block5_sepconv3/separable_conv2d_weights", "op": "Const", "attr": {"value": {"tensor": {"dtype": "DT_FLOAT", "tensorShape": {"dim": [{"size": "1"}, {"size": "1"}, {"size": "728"}, {"size": "728"}]}}}, "dtype": {"type": "DT_FLOAT"}}}, {"name": "StatefulPartitionedCall/sequential_5/xception/block5_sepconv3/separable_conv2d_bn_offset", "op": "Const", "attr": {"value": {"tensor": {"dtype": "DT_FLOAT", "tensorShape": {"dim": [{"size": "728"}]}}}, "dtype": {"type": "DT_FLOAT"}}}, {"name": "StatefulPartitionedCall/sequential_5/xception/block6_sepconv1/separable_conv2d_weights", "op": "Const", "attr": {"value": {"tensor": {"dtype": "DT_FLOAT", "tensorShape": {"dim": [{"size": "1"}, {"size": "1"}, {"size": "728"}, {"size": "728"}]}}}, "dtype": {"type": "DT_FLOAT"}}}, {"name": "StatefulPartitionedCall/sequential_5/xception/block12_sepconv2/separable_conv2d_bn_offset", "op": "Const", "attr": {"value": {"tensor": {"dtype": "DT_FLOAT", "tensorShape": {"dim": [{"size": "728"}]}}}, "dtype": {"type": "DT_FLOAT"}}}, {"name": "StatefulPartitionedCall/sequential_5/xception/block6_sepconv1/separable_conv2d_bn_offset", "op": "Const", "attr": {"value": {"tensor": {"dtype": "DT_FLOAT", "tensorShape": {"dim": [{"size": "728"}]}}}, "dtype": {"type": "DT_FLOAT"}}}, {"name": "StatefulPartitionedCall/sequential_5/xception/block6_sepconv2/separable_conv2d_weights", "op": "Const", "attr": {"value": {"tensor": {"dtype": "DT_FLOAT", "tensorShape": {"dim": [{"size": "1"}, {"size": "1"}, {"size": "728"}, {"size": "728"}]}}}, "dtype": {"type": "DT_FLOAT"}}}, {"name": "StatefulPartitionedCall/sequential_5/xception/block6_sepconv2/separable_conv2d_bn_offset", "op": "Const", "attr": {"value": {"tensor": {"dtype": "DT_FLOAT", "tensorShape": {"dim": [{"size": "728"}]}}}, "dtype": {"type": "DT_FLOAT"}}}, {"name": "StatefulPartitionedCall/sequential_5/xception/block6_sepconv3/separable_conv2d_weights", "op": "Const", "attr": {"value": {"tensor": {"dtype": "DT_FLOAT", "tensorShape": {"dim": [{"size": "1"}, {"size": "1"}, {"size": "728"}, {"size": "728"}]}}}, "dtype": {"type": "DT_FLOAT"}}}, {"name": "StatefulPartitionedCall/sequential_5/xception/block12_sepconv3/separable_conv2d_weights", "op": "Const", "attr": {"value": {"tensor": {"dtype": "DT_FLOAT", "tensorShape": {"dim": [{"size": "1"}, {"size": "1"}, {"size": "728"}, {"size": "728"}]}}}, "dtype": {"type": "DT_FLOAT"}}}, {"name": "StatefulPartitionedCall/sequential_5/xception/block6_sepconv3/separable_conv2d_bn_offset", "op": "Const", "attr": {"value": {"tensor": {"dtype": "DT_FLOAT", "tensorShape": {"dim": [{"size": "728"}]}}}, "dtype": {"type": "DT_FLOAT"}}}, {"name": "StatefulPartitionedCall/sequential_5/xception/block7_sepconv1/separable_conv2d_weights", "op": "Const", "attr": {"value": {"tensor": {"dtype": "DT_FLOAT", "tensorShape": {"dim": [{"size": "1"}, {"size": "1"}, {"size": "728"}, {"size": "728"}]}}}, "dtype": {"type": "DT_FLOAT"}}}, {"name": "StatefulPartitionedCall/sequential_5/xception/block14_sepconv2/separable_conv2d_weights", "op": "Const", "attr": {"value": {"tensor": {"dtype": "DT_FLOAT", "tensorShape": {"dim": [{"size": "1"}, {"size": "1"}, {"size": "1536"}, {"size": "2048"}]}}}, "dtype": {"type": "DT_FLOAT"}}}, {"name": "StatefulPartitionedCall/sequential_5/xception/block7_sepconv1/separable_conv2d_bn_offset", "op": "Const", "attr": {"value": {"tensor": {"dtype": "DT_FLOAT", "tensorShape": {"dim": [{"size": "728"}]}}}, "dtype": {"type": "DT_FLOAT"}}}, {"name": "StatefulPartitionedCall/sequential_5/xception/block12_sepconv3/separable_conv2d_bn_offset", "op": "Const", "attr": {"value": {"tensor": {"dtype": "DT_FLOAT", "tensorShape": {"dim": [{"size": "728"}]}}}, "dtype": {"type": "DT_FLOAT"}}}, {"name": "StatefulPartitionedCall/sequential_5/xception/block7_sepconv2/separable_conv2d_weights", "op": "Const", "attr": {"value": {"tensor": {"dtype": "DT_FLOAT", "tensorShape": {"dim": [{"size": "1"}, {"size": "1"}, {"size": "728"}, {"size": "728"}]}}}, "dtype": {"type": "DT_FLOAT"}}}, {"name": "StatefulPartitionedCall/sequential_5/xception/block7_sepconv2/separable_conv2d_bn_offset", "op": "Const", "attr": {"value": {"tensor": {"dtype": "DT_FLOAT", "tensorShape": {"dim": [{"size": "728"}]}}}, "dtype": {"type": "DT_FLOAT"}}}, {"name": "StatefulPartitionedCall/sequential_5/xception/block7_sepconv3/separable_conv2d_weights", "op": "Const", "attr": {"value": {"tensor": {"dtype": "DT_FLOAT", "tensorShape": {"dim": [{"size": "1"}, {"size": "1"}, {"size": "728"}, {"size": "728"}]}}}, "dtype": {"type": "DT_FLOAT"}}}, {"name": "StatefulPartitionedCall/sequential_5/xception/block7_sepconv3/separable_conv2d_bn_offset", "op": "Const", "attr": {"value": {"tensor": {"dtype": "DT_FLOAT", "tensorShape": {"dim": [{"size": "728"}]}}}, "dtype": {"type": "DT_FLOAT"}}}, {"name": "StatefulPartitionedCall/sequential_5/xception/block8_sepconv1/separable_conv2d_weights", "op": "Const", "attr": {"value": {"tensor": {"dtype": "DT_FLOAT", "tensorShape": {"dim": [{"size": "1"}, {"size": "1"}, {"size": "728"}, {"size": "728"}]}}}, "dtype": {"type": "DT_FLOAT"}}}, {"name": "StatefulPartitionedCall/sequential_5/xception/block8_sepconv1/separable_conv2d_bn_offset", "op": "Const", "attr": {"value": {"tensor": {"dtype": "DT_FLOAT", "tensorShape": {"dim": [{"size": "728"}]}}}, "dtype": {"type": "DT_FLOAT"}}}, {"name": "StatefulPartitionedCall/sequential_5/xception/conv2d_7/Conv2D_weights", "op": "Const", "attr": {"value": {"tensor": {"dtype": "DT_FLOAT", "tensorShape": {"dim": [{"size": "1"}, {"size": "1"}, {"size": "728"}, {"size": "1024"}]}}}, "dtype": {"type": "DT_FLOAT"}}}, {"name": "StatefulPartitionedCall/sequential_5/xception/block8_sepconv2/separable_conv2d_weights", "op": "Const", "attr": {"value": {"tensor": {"dtype": "DT_FLOAT", "tensorShape": {"dim": [{"size": "1"}, {"size": "1"}, {"size": "728"}, {"size": "728"}]}}}, "dtype": {"type": "DT_FLOAT"}}}, {"name": "StatefulPartitionedCall/sequential_5/xception/block8_sepconv2/separable_conv2d_bn_offset", "op": "Const", "attr": {"value": {"tensor": {"dtype": "DT_FLOAT", "tensorShape": {"dim": [{"size": "728"}]}}}, "dtype": {"type": "DT_FLOAT"}}}, {"name": "StatefulPartitionedCall/sequential_5/xception/conv2d_7/Conv2D_bn_offset", "op": "Const", "attr": {"value": {"tensor": {"dtype": "DT_FLOAT", "tensorShape": {"dim": [{"size": "1024"}]}}}, "dtype": {"type": "DT_FLOAT"}}}, {"name": "StatefulPartitionedCall/sequential_5/xception/block8_sepconv3/separable_conv2d_weights", "op": "Const", "attr": {"value": {"tensor": {"dtype": "DT_FLOAT", "tensorShape": {"dim": [{"size": "1"}, {"size": "1"}, {"size": "728"}, {"size": "728"}]}}}, "dtype": {"type": "DT_FLOAT"}}}, {"name": "StatefulPartitionedCall/sequential_5/xception/block8_sepconv3/separable_conv2d_bn_offset", "op": "Const", "attr": {"value": {"tensor": {"dtype": "DT_FLOAT", "tensorShape": {"dim": [{"size": "728"}]}}}, "dtype": {"type": "DT_FLOAT"}}}, {"name": "StatefulPartitionedCall/sequential_5/xception/block9_sepconv1/separable_conv2d_weights", "op": "Const", "attr": {"value": {"tensor": {"dtype": "DT_FLOAT", "tensorShape": {"dim": [{"size": "1"}, {"size": "1"}, {"size": "728"}, {"size": "728"}]}}}, "dtype": {"type": "DT_FLOAT"}}}, {"name": "StatefulPartitionedCall/sequential_5/xception/block13_sepconv1/separable_conv2d_weights", "op": "Const", "attr": {"value": {"tensor": {"dtype": "DT_FLOAT", "tensorShape": {"dim": [{"size": "1"}, {"size": "1"}, {"size": "728"}, {"size": "728"}]}}}, "dtype": {"type": "DT_FLOAT"}}}, {"name": "StatefulPartitionedCall/sequential_5/xception/block9_sepconv1/separable_conv2d_bn_offset", "op": "Const", "attr": {"value": {"tensor": {"dtype": "DT_FLOAT", "tensorShape": {"dim": [{"size": "728"}]}}}, "dtype": {"type": "DT_FLOAT"}}}, {"name": "StatefulPartitionedCall/sequential_5/xception/block14_sepconv2/separable_conv2d_bn_offset", "op": "Const", "attr": {"value": {"tensor": {"dtype": "DT_FLOAT", "tensorShape": {"dim": [{"size": "2048"}]}}}, "dtype": {"type": "DT_FLOAT"}}}, {"name": "StatefulPartitionedCall/sequential_5/xception/block9_sepconv2/separable_conv2d_weights", "op": "Const", "attr": {"value": {"tensor": {"dtype": "DT_FLOAT", "tensorShape": {"dim": [{"size": "1"}, {"size": "1"}, {"size": "728"}, {"size": "728"}]}}}, "dtype": {"type": "DT_FLOAT"}}}, {"name": "StatefulPartitionedCall/sequential_5/xception/block13_sepconv1/separable_conv2d_bn_offset", "op": "Const", "attr": {"value": {"tensor": {"dtype": "DT_FLOAT", "tensorShape": {"dim": [{"size": "728"}]}}}, "dtype": {"type": "DT_FLOAT"}}}, {"name": "StatefulPartitionedCall/sequential_5/xception/block9_sepconv2/separable_conv2d_bn_offset", "op": "Const", "attr": {"value": {"tensor": {"dtype": "DT_FLOAT", "tensorShape": {"dim": [{"size": "728"}]}}}, "dtype": {"type": "DT_FLOAT"}}}, {"name": "StatefulPartitionedCall/sequential_5/xception/block9_sepconv3/separable_conv2d_weights", "op": "Const", "attr": {"value": {"tensor": {"dtype": "DT_FLOAT", "tensorShape": {"dim": [{"size": "1"}, {"size": "1"}, {"size": "728"}, {"size": "728"}]}}}, "dtype": {"type": "DT_FLOAT"}}}, {"name": "StatefulPartitionedCall/sequential_5/xception/block9_sepconv3/separable_conv2d_bn_offset", "op": "Const", "attr": {"value": {"tensor": {"dtype": "DT_FLOAT", "tensorShape": {"dim": [{"size": "728"}]}}}, "dtype": {"type": "DT_FLOAT"}}}, {"name": "StatefulPartitionedCall/sequential_5/xception/block10_sepconv1/separable_conv2d_weights", "op": "Const", "attr": {"value": {"tensor": {"dtype": "DT_FLOAT", "tensorShape": {"dim": [{"size": "1"}, {"size": "1"}, {"size": "728"}, {"size": "728"}]}}}, "dtype": {"type": "DT_FLOAT"}}}, {"name": "StatefulPartitionedCall/sequential_5/xception/block10_sepconv1/separable_conv2d_bn_offset", "op": "Const", "attr": {"value": {"tensor": {"dtype": "DT_FLOAT", "tensorShape": {"dim": [{"size": "728"}]}}}, "dtype": {"type": "DT_FLOAT"}}}, {"name": "StatefulPartitionedCall/sequential_5/xception/block13_sepconv2/separable_conv2d_weights", "op": "Const", "attr": {"value": {"tensor": {"dtype": "DT_FLOAT", "tensorShape": {"dim": [{"size": "1"}, {"size": "1"}, {"size": "728"}, {"size": "1024"}]}}}, "dtype": {"type": "DT_FLOAT"}}}, {"name": "StatefulPartitionedCall/sequential_5/xception/block10_sepconv2/separable_conv2d_weights", "op": "Const", "attr": {"value": {"tensor": {"dtype": "DT_FLOAT", "tensorShape": {"dim": [{"size": "1"}, {"size": "1"}, {"size": "728"}, {"size": "728"}]}}}, "dtype": {"type": "DT_FLOAT"}}}, {"name": "StatefulPartitionedCall/sequential_5/xception/block10_sepconv2/separable_conv2d_bn_offset", "op": "Const", "attr": {"value": {"tensor": {"dtype": "DT_FLOAT", "tensorShape": {"dim": [{"size": "728"}]}}}, "dtype": {"type": "DT_FLOAT"}}}, {"name": "StatefulPartitionedCall/sequential_5/xception/block13_sepconv2/separable_conv2d_bn_offset", "op": "Const", "attr": {"value": {"tensor": {"dtype": "DT_FLOAT", "tensorShape": {"dim": [{"size": "1024"}]}}}, "dtype": {"type": "DT_FLOAT"}}}, {"name": "StatefulPartitionedCall/sequential_5/xception/block10_sepconv3/separable_conv2d_weights", "op": "Const", "attr": {"value": {"tensor": {"dtype": "DT_FLOAT", "tensorShape": {"dim": [{"size": "1"}, {"size": "1"}, {"size": "728"}, {"size": "728"}]}}}, "dtype": {"type": "DT_FLOAT"}}}, {"name": "StatefulPartitionedCall/sequential_5/xception/block10_sepconv3/separable_conv2d_bn_offset", "op": "Const", "attr": {"value": {"tensor": {"dtype": "DT_FLOAT", "tensorShape": {"dim": [{"size": "728"}]}}}, "dtype": {"type": "DT_FLOAT"}}}, {"name": "StatefulPartitionedCall/sequential_5/xception/block11_sepconv1/separable_conv2d_weights", "op": "Const", "attr": {"value": {"tensor": {"dtype": "DT_FLOAT", "tensorShape": {"dim": [{"size": "1"}, {"size": "1"}, {"size": "728"}, {"size": "728"}]}}}, "dtype": {"type": "DT_FLOAT"}}}, {"name": "StatefulPartitionedCall/sequential_5/xception/block11_sepconv1/separable_conv2d_bn_offset", "op": "Const", "attr": {"value": {"tensor": {"dtype": "DT_FLOAT", "tensorShape": {"dim": [{"size": "728"}]}}}, "dtype": {"type": "DT_FLOAT"}}}, {"name": "StatefulPartitionedCall/sequential_5/xception/block1_conv1_act/Relu", "op": "_FusedConv2D", "input": ["xception_input", "StatefulPartitionedCall/sequential_5/xception/block1_conv1/Conv2D_weights", "StatefulPartitionedCall/sequential_5/xception/block1_conv1/Conv2D_bn_offset"], "device": "/device:CPU:0", "attr": {"dilations": {"list": {"i": ["1", "1", "1", "1"]}}, "T": {"type": "DT_FLOAT"}, "strides": {"list": {"i": ["1", "2", "2", "1"]}}, "data_format": {"s": "TkhXQw=="}, "use_cudnn_on_gpu": {"b": true}, "explicit_paddings": {"list": {}}, "num_args": {"i": "1"}, "epsilon": {"f": 0.0}, "padding": {"s": "VkFMSUQ="}, "fused_ops": {"list": {"s": ["Qmlhc0FkZA==", "UmVsdQ=="]}}, "leakyrelu_alpha": {"f": 0.2}}}, {"name": "StatefulPartitionedCall/sequential_5/xception/block1_conv2_act/Relu", "op": "_FusedConv2D", "input": ["StatefulPartitionedCall/sequential_5/xception/block1_conv1_act/Relu", "StatefulPartitionedCall/sequential_5/xception/block1_conv2/Conv2D_weights", "StatefulPartitionedCall/sequential_5/xception/block1_conv2/Conv2D_bn_offset"], "device": "/device:CPU:0", "attr": {"dilations": {"list": {"i": ["1", "1", "1", "1"]}}, "T": {"type": "DT_FLOAT"}, "strides": {"list": {"i": ["1", "1", "1", "1"]}}, "data_format": {"s": "TkhXQw=="}, "use_cudnn_on_gpu": {"b": true}, "explicit_paddings": {"list": {}}, "num_args": {"i": "1"}, "epsilon": {"f": 0.0}, "padding": {"s": "VkFMSUQ="}, "fused_ops": {"list": {"s": ["Qmlhc0FkZA==", "UmVsdQ=="]}}, "leakyrelu_alpha": {"f": 0.2}}}, {"name": "StatefulPartitionedCall/sequential_5/xception/block2_sepconv1/separable_conv2d/depthwise", "op": "DepthwiseConv2dNative", "input": ["StatefulPartitionedCall/sequential_5/xception/block1_conv2_act/Relu", "StatefulPartitionedCall/sequential_5/xception/block2_sepconv1/separable_conv2d/ReadVariableOp"], "attr": {"dilations": {"list": {"i": ["1", "1", "1", "1"]}}, "T": {"type": "DT_FLOAT"}, "strides": {"list": {"i": ["1", "1", "1", "1"]}}, "data_format": {"s": "TkhXQw=="}, "explicit_paddings": {"list": {}}, "padding": {"s": "U0FNRQ=="}}}, {"name": "StatefulPartitionedCall/sequential_5/xception/batch_normalization_4/FusedBatchNormV3", "op": "_FusedConv2D", "input": ["StatefulPartitionedCall/sequential_5/xception/block1_conv2_act/Relu", "StatefulPartitionedCall/sequential_5/xception/conv2d_4/Conv2D_weights", "StatefulPartitionedCall/sequential_5/xception/conv2d_4/Conv2D_bn_offset"], "device": "/device:CPU:0", "attr": {"dilations": {"list": {"i": ["1", "1", "1", "1"]}}, "T": {"type": "DT_FLOAT"}, "strides": {"list": {"i": ["1", "2", "2", "1"]}}, "data_format": {"s": "TkhXQw=="}, "use_cudnn_on_gpu": {"b": true}, "explicit_paddings": {"list": {}}, "num_args": {"i": "1"}, "epsilon": {"f": 0.0}, "padding": {"s": "U0FNRQ=="}, "fused_ops": {"list": {"s": ["Qmlhc0FkZA=="]}}, "leakyrelu_alpha": {"f": 0.2}}}, {"name": "StatefulPartitionedCall/sequential_5/xception/block2_sepconv2_act/Relu", "op": "_FusedConv2D", "input": ["StatefulPartitionedCall/sequential_5/xception/block2_sepconv1/separable_conv2d/depthwise", "StatefulPartitionedCall/sequential_5/xception/block2_sepconv1/separable_conv2d_weights", "StatefulPartitionedCall/sequential_5/xception/block2_sepconv1/separable_conv2d_bn_offset"], "device": "/device:CPU:0", "attr": {"dilations": {"list": {"i": ["1", "1", "1", "1"]}}, "T": {"type": "DT_FLOAT"}, "strides": {"list": {"i": ["1", "1", "1", "1"]}}, "data_format": {"s": "TkhXQw=="}, "use_cudnn_on_gpu": {"b": true}, "explicit_paddings": {"list": {}}, "num_args": {"i": "1"}, "epsilon": {"f": 0.0}, "padding": {"s": "VkFMSUQ="}, "fused_ops": {"list": {"s": ["Qmlhc0FkZA==", "UmVsdQ=="]}}, "leakyrelu_alpha": {"f": 0.2}}}, {"name": "StatefulPartitionedCall/sequential_5/xception/block2_sepconv2/separable_conv2d/depthwise", "op": "DepthwiseConv2dNative", "input": ["StatefulPartitionedCall/sequential_5/xception/block2_sepconv2_act/Relu", "StatefulPartitionedCall/sequential_5/xception/block2_sepconv2/separable_conv2d/ReadVariableOp"], "attr": {"dilations": {"list": {"i": ["1", "1", "1", "1"]}}, "T": {"type": "DT_FLOAT"}, "strides": {"list": {"i": ["1", "1", "1", "1"]}}, "data_format": {"s": "TkhXQw=="}, "explicit_paddings": {"list": {}}, "padding": {"s": "U0FNRQ=="}}}, {"name": "StatefulPartitionedCall/sequential_5/xception/block2_sepconv2_bn/FusedBatchNormV3", "op": "_FusedConv2D", "input": ["StatefulPartitionedCall/sequential_5/xception/block2_sepconv2/separable_conv2d/depthwise", "StatefulPartitionedCall/sequential_5/xception/block2_sepconv2/separable_conv2d_weights", "StatefulPartitionedCall/sequential_5/xception/block2_sepconv2/separable_conv2d_bn_offset"], "device": "/device:CPU:0", "attr": {"dilations": {"list": {"i": ["1", "1", "1", "1"]}}, "T": {"type": "DT_FLOAT"}, "strides": {"list": {"i": ["1", "1", "1", "1"]}}, "data_format": {"s": "TkhXQw=="}, "use_cudnn_on_gpu": {"b": true}, "explicit_paddings": {"list": {}}, "num_args": {"i": "1"}, "epsilon": {"f": 0.0}, "padding": {"s": "VkFMSUQ="}, "fused_ops": {"list": {"s": ["Qmlhc0FkZA=="]}}, "leakyrelu_alpha": {"f": 0.2}}}, {"name": "StatefulPartitionedCall/sequential_5/xception/block2_pool/MaxPool", "op": "MaxPool", "input": ["StatefulPartitionedCall/sequential_5/xception/block2_sepconv2_bn/FusedBatchNormV3"], "attr": {"T": {"type": "DT_FLOAT"}, "strides": {"list": {"i": ["1", "2", "2", "1"]}}, "data_format": {"s": "TkhXQw=="}, "explicit_paddings": {"list": {}}, "ksize": {"list": {"i": ["1", "3", "3", "1"]}}, "padding": {"s": "U0FNRQ=="}}}, {"name": "StatefulPartitionedCall/sequential_5/xception/add_12/add", "op": "AddV2", "input": ["StatefulPartitionedCall/sequential_5/xception/block2_pool/MaxPool", "StatefulPartitionedCall/sequential_5/xception/batch_normalization_4/FusedBatchNormV3"], "attr": {"T": {"type": "DT_FLOAT"}}}, {"name": "StatefulPartitionedCall/sequential_5/xception/block3_sepconv1_act/Relu", "op": "Relu", "input": ["StatefulPartitionedCall/sequential_5/xception/add_12/add"], "attr": {"T": {"type": "DT_FLOAT"}}}, {"name": "StatefulPartitionedCall/sequential_5/xception/batch_normalization_5/FusedBatchNormV3", "op": "_FusedConv2D", "input": ["StatefulPartitionedCall/sequential_5/xception/add_12/add", "StatefulPartitionedCall/sequential_5/xception/conv2d_5/Conv2D_weights", "StatefulPartitionedCall/sequential_5/xception/conv2d_5/Conv2D_bn_offset"], "device": "/device:CPU:0", "attr": {"dilations": {"list": {"i": ["1", "1", "1", "1"]}}, "T": {"type": "DT_FLOAT"}, "strides": {"list": {"i": ["1", "2", "2", "1"]}}, "data_format": {"s": "TkhXQw=="}, "use_cudnn_on_gpu": {"b": true}, "explicit_paddings": {"list": {}}, "num_args": {"i": "1"}, "epsilon": {"f": 0.0}, "padding": {"s": "U0FNRQ=="}, "fused_ops": {"list": {"s": ["Qmlhc0FkZA=="]}}, "leakyrelu_alpha": {"f": 0.2}}}, {"name": "StatefulPartitionedCall/sequential_5/xception/block3_sepconv1/separable_conv2d/depthwise", "op": "DepthwiseConv2dNative", "input": ["StatefulPartitionedCall/sequential_5/xception/block3_sepconv1_act/Relu", "StatefulPartitionedCall/sequential_5/xception/block3_sepconv1/separable_conv2d/ReadVariableOp"], "attr": {"dilations": {"list": {"i": ["1", "1", "1", "1"]}}, "T": {"type": "DT_FLOAT"}, "strides": {"list": {"i": ["1", "1", "1", "1"]}}, "data_format": {"s": "TkhXQw=="}, "explicit_paddings": {"list": {}}, "padding": {"s": "U0FNRQ=="}}}, {"name": "StatefulPartitionedCall/sequential_5/xception/block3_sepconv2_act/Relu", "op": "_FusedConv2D", "input": ["StatefulPartitionedCall/sequential_5/xception/block3_sepconv1/separable_conv2d/depthwise", "StatefulPartitionedCall/sequential_5/xception/block3_sepconv1/separable_conv2d_weights", "StatefulPartitionedCall/sequential_5/xception/block3_sepconv1/separable_conv2d_bn_offset"], "device": "/device:CPU:0", "attr": {"dilations": {"list": {"i": ["1", "1", "1", "1"]}}, "T": {"type": "DT_FLOAT"}, "strides": {"list": {"i": ["1", "1", "1", "1"]}}, "data_format": {"s": "TkhXQw=="}, "use_cudnn_on_gpu": {"b": true}, "explicit_paddings": {"list": {}}, "num_args": {"i": "1"}, "epsilon": {"f": 0.0}, "padding": {"s": "VkFMSUQ="}, "fused_ops": {"list": {"s": ["Qmlhc0FkZA==", "UmVsdQ=="]}}, "leakyrelu_alpha": {"f": 0.2}}}, {"name": "StatefulPartitionedCall/sequential_5/xception/block3_sepconv2/separable_conv2d/depthwise", "op": "DepthwiseConv2dNative", "input": ["StatefulPartitionedCall/sequential_5/xception/block3_sepconv2_act/Relu", "StatefulPartitionedCall/sequential_5/xception/block3_sepconv2/separable_conv2d/ReadVariableOp"], "attr": {"dilations": {"list": {"i": ["1", "1", "1", "1"]}}, "T": {"type": "DT_FLOAT"}, "strides": {"list": {"i": ["1", "1", "1", "1"]}}, "data_format": {"s": "TkhXQw=="}, "explicit_paddings": {"list": {}}, "padding": {"s": "U0FNRQ=="}}}, {"name": "StatefulPartitionedCall/sequential_5/xception/block3_sepconv2_bn/FusedBatchNormV3", "op": "_FusedConv2D", "input": ["StatefulPartitionedCall/sequential_5/xception/block3_sepconv2/separable_conv2d/depthwise", "StatefulPartitionedCall/sequential_5/xception/block3_sepconv2/separable_conv2d_weights", "StatefulPartitionedCall/sequential_5/xception/block3_sepconv2/separable_conv2d_bn_offset"], "device": "/device:CPU:0", "attr": {"dilations": {"list": {"i": ["1", "1", "1", "1"]}}, "T": {"type": "DT_FLOAT"}, "strides": {"list": {"i": ["1", "1", "1", "1"]}}, "data_format": {"s": "TkhXQw=="}, "use_cudnn_on_gpu": {"b": true}, "explicit_paddings": {"list": {}}, "num_args": {"i": "1"}, "epsilon": {"f": 0.0}, "padding": {"s": "VkFMSUQ="}, "fused_ops": {"list": {"s": ["Qmlhc0FkZA=="]}}, "leakyrelu_alpha": {"f": 0.2}}}, {"name": "StatefulPartitionedCall/sequential_5/xception/block3_pool/MaxPool", "op": "MaxPool", "input": ["StatefulPartitionedCall/sequential_5/xception/block3_sepconv2_bn/FusedBatchNormV3"], "attr": {"T": {"type": "DT_FLOAT"}, "strides": {"list": {"i": ["1", "2", "2", "1"]}}, "data_format": {"s": "TkhXQw=="}, "explicit_paddings": {"list": {}}, "ksize": {"list": {"i": ["1", "3", "3", "1"]}}, "padding": {"s": "U0FNRQ=="}}}, {"name": "StatefulPartitionedCall/sequential_5/xception/add_13/add", "op": "AddV2", "input": ["StatefulPartitionedCall/sequential_5/xception/block3_pool/MaxPool", "StatefulPartitionedCall/sequential_5/xception/batch_normalization_5/FusedBatchNormV3"], "attr": {"T": {"type": "DT_FLOAT"}}}, {"name": "StatefulPartitionedCall/sequential_5/xception/block4_sepconv1_act/Relu", "op": "Relu", "input": ["StatefulPartitionedCall/sequential_5/xception/add_13/add"], "attr": {"T": {"type": "DT_FLOAT"}}}, {"name": "StatefulPartitionedCall/sequential_5/xception/batch_normalization_6/FusedBatchNormV3", "op": "_FusedConv2D", "input": ["StatefulPartitionedCall/sequential_5/xception/add_13/add", "StatefulPartitionedCall/sequential_5/xception/conv2d_6/Conv2D_weights", "StatefulPartitionedCall/sequential_5/xception/conv2d_6/Conv2D_bn_offset"], "device": "/device:CPU:0", "attr": {"dilations": {"list": {"i": ["1", "1", "1", "1"]}}, "T": {"type": "DT_FLOAT"}, "strides": {"list": {"i": ["1", "2", "2", "1"]}}, "data_format": {"s": "TkhXQw=="}, "use_cudnn_on_gpu": {"b": true}, "explicit_paddings": {"list": {}}, "num_args": {"i": "1"}, "epsilon": {"f": 0.0}, "padding": {"s": "U0FNRQ=="}, "fused_ops": {"list": {"s": ["Qmlhc0FkZA=="]}}, "leakyrelu_alpha": {"f": 0.2}}}, {"name": "StatefulPartitionedCall/sequential_5/xception/block4_sepconv1/separable_conv2d/depthwise", "op": "DepthwiseConv2dNative", "input": ["StatefulPartitionedCall/sequential_5/xception/block4_sepconv1_act/Relu", "StatefulPartitionedCall/sequential_5/xception/block4_sepconv1/separable_conv2d/ReadVariableOp"], "attr": {"dilations": {"list": {"i": ["1", "1", "1", "1"]}}, "T": {"type": "DT_FLOAT"}, "strides": {"list": {"i": ["1", "1", "1", "1"]}}, "data_format": {"s": "TkhXQw=="}, "explicit_paddings": {"list": {}}, "padding": {"s": "U0FNRQ=="}}}, {"name": "StatefulPartitionedCall/sequential_5/xception/block4_sepconv2_act/Relu", "op": "_FusedConv2D", "input": ["StatefulPartitionedCall/sequential_5/xception/block4_sepconv1/separable_conv2d/depthwise", "StatefulPartitionedCall/sequential_5/xception/block4_sepconv1/separable_conv2d_weights", "StatefulPartitionedCall/sequential_5/xception/block4_sepconv1/separable_conv2d_bn_offset"], "device": "/device:CPU:0", "attr": {"dilations": {"list": {"i": ["1", "1", "1", "1"]}}, "T": {"type": "DT_FLOAT"}, "strides": {"list": {"i": ["1", "1", "1", "1"]}}, "data_format": {"s": "TkhXQw=="}, "use_cudnn_on_gpu": {"b": true}, "explicit_paddings": {"list": {}}, "num_args": {"i": "1"}, "epsilon": {"f": 0.0}, "padding": {"s": "VkFMSUQ="}, "fused_ops": {"list": {"s": ["Qmlhc0FkZA==", "UmVsdQ=="]}}, "leakyrelu_alpha": {"f": 0.2}}}, {"name": "StatefulPartitionedCall/sequential_5/xception/block4_sepconv2/separable_conv2d/depthwise", "op": "DepthwiseConv2dNative", "input": ["StatefulPartitionedCall/sequential_5/xception/block4_sepconv2_act/Relu", "StatefulPartitionedCall/sequential_5/xception/block4_sepconv2/separable_conv2d/ReadVariableOp"], "attr": {"dilations": {"list": {"i": ["1", "1", "1", "1"]}}, "T": {"type": "DT_FLOAT"}, "strides": {"list": {"i": ["1", "1", "1", "1"]}}, "data_format": {"s": "TkhXQw=="}, "explicit_paddings": {"list": {}}, "padding": {"s": "U0FNRQ=="}}}, {"name": "StatefulPartitionedCall/sequential_5/xception/block4_sepconv2_bn/FusedBatchNormV3", "op": "_FusedConv2D", "input": ["StatefulPartitionedCall/sequential_5/xception/block4_sepconv2/separable_conv2d/depthwise", "StatefulPartitionedCall/sequential_5/xception/block4_sepconv2/separable_conv2d_weights", "StatefulPartitionedCall/sequential_5/xception/block4_sepconv2/separable_conv2d_bn_offset"], "device": "/device:CPU:0", "attr": {"dilations": {"list": {"i": ["1", "1", "1", "1"]}}, "T": {"type": "DT_FLOAT"}, "strides": {"list": {"i": ["1", "1", "1", "1"]}}, "data_format": {"s": "TkhXQw=="}, "use_cudnn_on_gpu": {"b": true}, "explicit_paddings": {"list": {}}, "num_args": {"i": "1"}, "epsilon": {"f": 0.0}, "padding": {"s": "VkFMSUQ="}, "fused_ops": {"list": {"s": ["Qmlhc0FkZA=="]}}, "leakyrelu_alpha": {"f": 0.2}}}, {"name": "StatefulPartitionedCall/sequential_5/xception/block4_pool/MaxPool", "op": "MaxPool", "input": ["StatefulPartitionedCall/sequential_5/xception/block4_sepconv2_bn/FusedBatchNormV3"], "attr": {"T": {"type": "DT_FLOAT"}, "strides": {"list": {"i": ["1", "2", "2", "1"]}}, "data_format": {"s": "TkhXQw=="}, "explicit_paddings": {"list": {}}, "ksize": {"list": {"i": ["1", "3", "3", "1"]}}, "padding": {"s": "U0FNRQ=="}}}, {"name": "StatefulPartitionedCall/sequential_5/xception/add_14/add", "op": "AddV2", "input": ["StatefulPartitionedCall/sequential_5/xception/block4_pool/MaxPool", "StatefulPartitionedCall/sequential_5/xception/batch_normalization_6/FusedBatchNormV3"], "attr": {"T": {"type": "DT_FLOAT"}}}, {"name": "StatefulPartitionedCall/sequential_5/xception/block5_sepconv1_act/Relu", "op": "Relu", "input": ["StatefulPartitionedCall/sequential_5/xception/add_14/add"], "attr": {"T": {"type": "DT_FLOAT"}}}, {"name": "StatefulPartitionedCall/sequential_5/xception/block5_sepconv1/separable_conv2d/depthwise", "op": "DepthwiseConv2dNative", "input": ["StatefulPartitionedCall/sequential_5/xception/block5_sepconv1_act/Relu", "StatefulPartitionedCall/sequential_5/xception/block5_sepconv1/separable_conv2d/ReadVariableOp"], "attr": {"dilations": {"list": {"i": ["1", "1", "1", "1"]}}, "T": {"type": "DT_FLOAT"}, "strides": {"list": {"i": ["1", "1", "1", "1"]}}, "data_format": {"s": "TkhXQw=="}, "explicit_paddings": {"list": {}}, "padding": {"s": "U0FNRQ=="}}}, {"name": "StatefulPartitionedCall/sequential_5/xception/block5_sepconv2_act/Relu", "op": "_FusedConv2D", "input": ["StatefulPartitionedCall/sequential_5/xception/block5_sepconv1/separable_conv2d/depthwise", "StatefulPartitionedCall/sequential_5/xception/block5_sepconv1/separable_conv2d_weights", "StatefulPartitionedCall/sequential_5/xception/block5_sepconv1/separable_conv2d_bn_offset"], "device": "/device:CPU:0", "attr": {"dilations": {"list": {"i": ["1", "1", "1", "1"]}}, "T": {"type": "DT_FLOAT"}, "strides": {"list": {"i": ["1", "1", "1", "1"]}}, "data_format": {"s": "TkhXQw=="}, "use_cudnn_on_gpu": {"b": true}, "explicit_paddings": {"list": {}}, "num_args": {"i": "1"}, "epsilon": {"f": 0.0}, "padding": {"s": "VkFMSUQ="}, "fused_ops": {"list": {"s": ["Qmlhc0FkZA==", "UmVsdQ=="]}}, "leakyrelu_alpha": {"f": 0.2}}}, {"name": "StatefulPartitionedCall/sequential_5/xception/block5_sepconv2/separable_conv2d/depthwise", "op": "DepthwiseConv2dNative", "input": ["StatefulPartitionedCall/sequential_5/xception/block5_sepconv2_act/Relu", "StatefulPartitionedCall/sequential_5/xception/block5_sepconv2/separable_conv2d/ReadVariableOp"], "attr": {"dilations": {"list": {"i": ["1", "1", "1", "1"]}}, "T": {"type": "DT_FLOAT"}, "strides": {"list": {"i": ["1", "1", "1", "1"]}}, "data_format": {"s": "TkhXQw=="}, "explicit_paddings": {"list": {}}, "padding": {"s": "U0FNRQ=="}}}, {"name": "StatefulPartitionedCall/sequential_5/xception/block5_sepconv3_act/Relu", "op": "_FusedConv2D", "input": ["StatefulPartitionedCall/sequential_5/xception/block5_sepconv2/separable_conv2d/depthwise", "StatefulPartitionedCall/sequential_5/xception/block5_sepconv2/separable_conv2d_weights", "StatefulPartitionedCall/sequential_5/xception/block5_sepconv2/separable_conv2d_bn_offset"], "device": "/device:CPU:0", "attr": {"dilations": {"list": {"i": ["1", "1", "1", "1"]}}, "T": {"type": "DT_FLOAT"}, "strides": {"list": {"i": ["1", "1", "1", "1"]}}, "data_format": {"s": "TkhXQw=="}, "use_cudnn_on_gpu": {"b": true}, "explicit_paddings": {"list": {}}, "num_args": {"i": "1"}, "epsilon": {"f": 0.0}, "padding": {"s": "VkFMSUQ="}, "fused_ops": {"list": {"s": ["Qmlhc0FkZA==", "UmVsdQ=="]}}, "leakyrelu_alpha": {"f": 0.2}}}, {"name": "StatefulPartitionedCall/sequential_5/xception/block5_sepconv3/separable_conv2d/depthwise", "op": "DepthwiseConv2dNative", "input": ["StatefulPartitionedCall/sequential_5/xception/block5_sepconv3_act/Relu", "StatefulPartitionedCall/sequential_5/xception/block5_sepconv3/separable_conv2d/ReadVariableOp"], "attr": {"dilations": {"list": {"i": ["1", "1", "1", "1"]}}, "T": {"type": "DT_FLOAT"}, "strides": {"list": {"i": ["1", "1", "1", "1"]}}, "data_format": {"s": "TkhXQw=="}, "explicit_paddings": {"list": {}}, "padding": {"s": "U0FNRQ=="}}}, {"name": "StatefulPartitionedCall/sequential_5/xception/block5_sepconv3_bn/FusedBatchNormV3", "op": "_FusedConv2D", "input": ["StatefulPartitionedCall/sequential_5/xception/block5_sepconv3/separable_conv2d/depthwise", "StatefulPartitionedCall/sequential_5/xception/block5_sepconv3/separable_conv2d_weights", "StatefulPartitionedCall/sequential_5/xception/block5_sepconv3/separable_conv2d_bn_offset"], "device": "/device:CPU:0", "attr": {"dilations": {"list": {"i": ["1", "1", "1", "1"]}}, "T": {"type": "DT_FLOAT"}, "strides": {"list": {"i": ["1", "1", "1", "1"]}}, "data_format": {"s": "TkhXQw=="}, "use_cudnn_on_gpu": {"b": true}, "explicit_paddings": {"list": {}}, "num_args": {"i": "1"}, "epsilon": {"f": 0.0}, "padding": {"s": "VkFMSUQ="}, "fused_ops": {"list": {"s": ["Qmlhc0FkZA=="]}}, "leakyrelu_alpha": {"f": 0.2}}}, {"name": "StatefulPartitionedCall/sequential_5/xception/add_15/add", "op": "AddV2", "input": ["StatefulPartitionedCall/sequential_5/xception/block5_sepconv3_bn/FusedBatchNormV3", "StatefulPartitionedCall/sequential_5/xception/add_14/add"], "attr": {"T": {"type": "DT_FLOAT"}}}, {"name": "StatefulPartitionedCall/sequential_5/xception/block6_sepconv1_act/Relu", "op": "Relu", "input": ["StatefulPartitionedCall/sequential_5/xception/add_15/add"], "attr": {"T": {"type": "DT_FLOAT"}}}, {"name": "StatefulPartitionedCall/sequential_5/xception/block6_sepconv1/separable_conv2d/depthwise", "op": "DepthwiseConv2dNative", "input": ["StatefulPartitionedCall/sequential_5/xception/block6_sepconv1_act/Relu", "StatefulPartitionedCall/sequential_5/xception/block6_sepconv1/separable_conv2d/ReadVariableOp"], "attr": {"dilations": {"list": {"i": ["1", "1", "1", "1"]}}, "T": {"type": "DT_FLOAT"}, "strides": {"list": {"i": ["1", "1", "1", "1"]}}, "data_format": {"s": "TkhXQw=="}, "explicit_paddings": {"list": {}}, "padding": {"s": "U0FNRQ=="}}}, {"name": "StatefulPartitionedCall/sequential_5/xception/block6_sepconv2_act/Relu", "op": "_FusedConv2D", "input": ["StatefulPartitionedCall/sequential_5/xception/block6_sepconv1/separable_conv2d/depthwise", "StatefulPartitionedCall/sequential_5/xception/block6_sepconv1/separable_conv2d_weights", "StatefulPartitionedCall/sequential_5/xception/block6_sepconv1/separable_conv2d_bn_offset"], "device": "/device:CPU:0", "attr": {"dilations": {"list": {"i": ["1", "1", "1", "1"]}}, "T": {"type": "DT_FLOAT"}, "strides": {"list": {"i": ["1", "1", "1", "1"]}}, "data_format": {"s": "TkhXQw=="}, "use_cudnn_on_gpu": {"b": true}, "explicit_paddings": {"list": {}}, "num_args": {"i": "1"}, "epsilon": {"f": 0.0}, "padding": {"s": "VkFMSUQ="}, "fused_ops": {"list": {"s": ["Qmlhc0FkZA==", "UmVsdQ=="]}}, "leakyrelu_alpha": {"f": 0.2}}}, {"name": "StatefulPartitionedCall/sequential_5/xception/block6_sepconv2/separable_conv2d/depthwise", "op": "DepthwiseConv2dNative", "input": ["StatefulPartitionedCall/sequential_5/xception/block6_sepconv2_act/Relu", "StatefulPartitionedCall/sequential_5/xception/block6_sepconv2/separable_conv2d/ReadVariableOp"], "attr": {"dilations": {"list": {"i": ["1", "1", "1", "1"]}}, "T": {"type": "DT_FLOAT"}, "strides": {"list": {"i": ["1", "1", "1", "1"]}}, "data_format": {"s": "TkhXQw=="}, "explicit_paddings": {"list": {}}, "padding": {"s": "U0FNRQ=="}}}, {"name": "StatefulPartitionedCall/sequential_5/xception/block6_sepconv3_act/Relu", "op": "_FusedConv2D", "input": ["StatefulPartitionedCall/sequential_5/xception/block6_sepconv2/separable_conv2d/depthwise", "StatefulPartitionedCall/sequential_5/xception/block6_sepconv2/separable_conv2d_weights", "StatefulPartitionedCall/sequential_5/xception/block6_sepconv2/separable_conv2d_bn_offset"], "device": "/device:CPU:0", "attr": {"dilations": {"list": {"i": ["1", "1", "1", "1"]}}, "T": {"type": "DT_FLOAT"}, "strides": {"list": {"i": ["1", "1", "1", "1"]}}, "data_format": {"s": "TkhXQw=="}, "use_cudnn_on_gpu": {"b": true}, "explicit_paddings": {"list": {}}, "num_args": {"i": "1"}, "epsilon": {"f": 0.0}, "padding": {"s": "VkFMSUQ="}, "fused_ops": {"list": {"s": ["Qmlhc0FkZA==", "UmVsdQ=="]}}, "leakyrelu_alpha": {"f": 0.2}}}, {"name": "StatefulPartitionedCall/sequential_5/xception/block6_sepconv3/separable_conv2d/depthwise", "op": "DepthwiseConv2dNative", "input": ["StatefulPartitionedCall/sequential_5/xception/block6_sepconv3_act/Relu", "StatefulPartitionedCall/sequential_5/xception/block6_sepconv3/separable_conv2d/ReadVariableOp"], "attr": {"dilations": {"list": {"i": ["1", "1", "1", "1"]}}, "T": {"type": "DT_FLOAT"}, "strides": {"list": {"i": ["1", "1", "1", "1"]}}, "data_format": {"s": "TkhXQw=="}, "explicit_paddings": {"list": {}}, "padding": {"s": "U0FNRQ=="}}}, {"name": "StatefulPartitionedCall/sequential_5/xception/block6_sepconv3_bn/FusedBatchNormV3", "op": "_FusedConv2D", "input": ["StatefulPartitionedCall/sequential_5/xception/block6_sepconv3/separable_conv2d/depthwise", "StatefulPartitionedCall/sequential_5/xception/block6_sepconv3/separable_conv2d_weights", "StatefulPartitionedCall/sequential_5/xception/block6_sepconv3/separable_conv2d_bn_offset"], "device": "/device:CPU:0", "attr": {"dilations": {"list": {"i": ["1", "1", "1", "1"]}}, "T": {"type": "DT_FLOAT"}, "strides": {"list": {"i": ["1", "1", "1", "1"]}}, "data_format": {"s": "TkhXQw=="}, "use_cudnn_on_gpu": {"b": true}, "explicit_paddings": {"list": {}}, "num_args": {"i": "1"}, "epsilon": {"f": 0.0}, "padding": {"s": "VkFMSUQ="}, "fused_ops": {"list": {"s": ["Qmlhc0FkZA=="]}}, "leakyrelu_alpha": {"f": 0.2}}}, {"name": "StatefulPartitionedCall/sequential_5/xception/add_16/add", "op": "AddV2", "input": ["StatefulPartitionedCall/sequential_5/xception/block6_sepconv3_bn/FusedBatchNormV3", "StatefulPartitionedCall/sequential_5/xception/add_15/add"], "attr": {"T": {"type": "DT_FLOAT"}}}, {"name": "StatefulPartitionedCall/sequential_5/xception/block7_sepconv1_act/Relu", "op": "Relu", "input": ["StatefulPartitionedCall/sequential_5/xception/add_16/add"], "attr": {"T": {"type": "DT_FLOAT"}}}, {"name": "StatefulPartitionedCall/sequential_5/xception/block7_sepconv1/separable_conv2d/depthwise", "op": "DepthwiseConv2dNative", "input": ["StatefulPartitionedCall/sequential_5/xception/block7_sepconv1_act/Relu", "StatefulPartitionedCall/sequential_5/xception/block7_sepconv1/separable_conv2d/ReadVariableOp"], "attr": {"dilations": {"list": {"i": ["1", "1", "1", "1"]}}, "T": {"type": "DT_FLOAT"}, "strides": {"list": {"i": ["1", "1", "1", "1"]}}, "data_format": {"s": "TkhXQw=="}, "explicit_paddings": {"list": {}}, "padding": {"s": "U0FNRQ=="}}}, {"name": "StatefulPartitionedCall/sequential_5/xception/block7_sepconv2_act/Relu", "op": "_FusedConv2D", "input": ["StatefulPartitionedCall/sequential_5/xception/block7_sepconv1/separable_conv2d/depthwise", "StatefulPartitionedCall/sequential_5/xception/block7_sepconv1/separable_conv2d_weights", "StatefulPartitionedCall/sequential_5/xception/block7_sepconv1/separable_conv2d_bn_offset"], "device": "/device:CPU:0", "attr": {"dilations": {"list": {"i": ["1", "1", "1", "1"]}}, "T": {"type": "DT_FLOAT"}, "strides": {"list": {"i": ["1", "1", "1", "1"]}}, "data_format": {"s": "TkhXQw=="}, "use_cudnn_on_gpu": {"b": true}, "explicit_paddings": {"list": {}}, "num_args": {"i": "1"}, "epsilon": {"f": 0.0}, "padding": {"s": "VkFMSUQ="}, "fused_ops": {"list": {"s": ["Qmlhc0FkZA==", "UmVsdQ=="]}}, "leakyrelu_alpha": {"f": 0.2}}}, {"name": "StatefulPartitionedCall/sequential_5/xception/block7_sepconv2/separable_conv2d/depthwise", "op": "DepthwiseConv2dNative", "input": ["StatefulPartitionedCall/sequential_5/xception/block7_sepconv2_act/Relu", "StatefulPartitionedCall/sequential_5/xception/block7_sepconv2/separable_conv2d/ReadVariableOp"], "attr": {"dilations": {"list": {"i": ["1", "1", "1", "1"]}}, "T": {"type": "DT_FLOAT"}, "strides": {"list": {"i": ["1", "1", "1", "1"]}}, "data_format": {"s": "TkhXQw=="}, "explicit_paddings": {"list": {}}, "padding": {"s": "U0FNRQ=="}}}, {"name": "StatefulPartitionedCall/sequential_5/xception/block7_sepconv3_act/Relu", "op": "_FusedConv2D", "input": ["StatefulPartitionedCall/sequential_5/xception/block7_sepconv2/separable_conv2d/depthwise", "StatefulPartitionedCall/sequential_5/xception/block7_sepconv2/separable_conv2d_weights", "StatefulPartitionedCall/sequential_5/xception/block7_sepconv2/separable_conv2d_bn_offset"], "device": "/device:CPU:0", "attr": {"dilations": {"list": {"i": ["1", "1", "1", "1"]}}, "T": {"type": "DT_FLOAT"}, "strides": {"list": {"i": ["1", "1", "1", "1"]}}, "data_format": {"s": "TkhXQw=="}, "use_cudnn_on_gpu": {"b": true}, "explicit_paddings": {"list": {}}, "num_args": {"i": "1"}, "epsilon": {"f": 0.0}, "padding": {"s": "VkFMSUQ="}, "fused_ops": {"list": {"s": ["Qmlhc0FkZA==", "UmVsdQ=="]}}, "leakyrelu_alpha": {"f": 0.2}}}, {"name": "StatefulPartitionedCall/sequential_5/xception/block7_sepconv3/separable_conv2d/depthwise", "op": "DepthwiseConv2dNative", "input": ["StatefulPartitionedCall/sequential_5/xception/block7_sepconv3_act/Relu", "StatefulPartitionedCall/sequential_5/xception/block7_sepconv3/separable_conv2d/ReadVariableOp"], "attr": {"dilations": {"list": {"i": ["1", "1", "1", "1"]}}, "T": {"type": "DT_FLOAT"}, "strides": {"list": {"i": ["1", "1", "1", "1"]}}, "data_format": {"s": "TkhXQw=="}, "explicit_paddings": {"list": {}}, "padding": {"s": "U0FNRQ=="}}}, {"name": "StatefulPartitionedCall/sequential_5/xception/block7_sepconv3_bn/FusedBatchNormV3", "op": "_FusedConv2D", "input": ["StatefulPartitionedCall/sequential_5/xception/block7_sepconv3/separable_conv2d/depthwise", "StatefulPartitionedCall/sequential_5/xception/block7_sepconv3/separable_conv2d_weights", "StatefulPartitionedCall/sequential_5/xception/block7_sepconv3/separable_conv2d_bn_offset"], "device": "/device:CPU:0", "attr": {"dilations": {"list": {"i": ["1", "1", "1", "1"]}}, "T": {"type": "DT_FLOAT"}, "strides": {"list": {"i": ["1", "1", "1", "1"]}}, "data_format": {"s": "TkhXQw=="}, "use_cudnn_on_gpu": {"b": true}, "explicit_paddings": {"list": {}}, "num_args": {"i": "1"}, "epsilon": {"f": 0.0}, "padding": {"s": "VkFMSUQ="}, "fused_ops": {"list": {"s": ["Qmlhc0FkZA=="]}}, "leakyrelu_alpha": {"f": 0.2}}}, {"name": "StatefulPartitionedCall/sequential_5/xception/add_17/add", "op": "AddV2", "input": ["StatefulPartitionedCall/sequential_5/xception/block7_sepconv3_bn/FusedBatchNormV3", "StatefulPartitionedCall/sequential_5/xception/add_16/add"], "attr": {"T": {"type": "DT_FLOAT"}}}, {"name": "StatefulPartitionedCall/sequential_5/xception/block8_sepconv1_act/Relu", "op": "Relu", "input": ["StatefulPartitionedCall/sequential_5/xception/add_17/add"], "attr": {"T": {"type": "DT_FLOAT"}}}, {"name": "StatefulPartitionedCall/sequential_5/xception/block8_sepconv1/separable_conv2d/depthwise", "op": "DepthwiseConv2dNative", "input": ["StatefulPartitionedCall/sequential_5/xception/block8_sepconv1_act/Relu", "StatefulPartitionedCall/sequential_5/xception/block8_sepconv1/separable_conv2d/ReadVariableOp"], "attr": {"dilations": {"list": {"i": ["1", "1", "1", "1"]}}, "T": {"type": "DT_FLOAT"}, "strides": {"list": {"i": ["1", "1", "1", "1"]}}, "data_format": {"s": "TkhXQw=="}, "explicit_paddings": {"list": {}}, "padding": {"s": "U0FNRQ=="}}}, {"name": "StatefulPartitionedCall/sequential_5/xception/block8_sepconv2_act/Relu", "op": "_FusedConv2D", "input": ["StatefulPartitionedCall/sequential_5/xception/block8_sepconv1/separable_conv2d/depthwise", "StatefulPartitionedCall/sequential_5/xception/block8_sepconv1/separable_conv2d_weights", "StatefulPartitionedCall/sequential_5/xception/block8_sepconv1/separable_conv2d_bn_offset"], "device": "/device:CPU:0", "attr": {"dilations": {"list": {"i": ["1", "1", "1", "1"]}}, "T": {"type": "DT_FLOAT"}, "strides": {"list": {"i": ["1", "1", "1", "1"]}}, "data_format": {"s": "TkhXQw=="}, "use_cudnn_on_gpu": {"b": true}, "explicit_paddings": {"list": {}}, "num_args": {"i": "1"}, "epsilon": {"f": 0.0}, "padding": {"s": "VkFMSUQ="}, "fused_ops": {"list": {"s": ["Qmlhc0FkZA==", "UmVsdQ=="]}}, "leakyrelu_alpha": {"f": 0.2}}}, {"name": "StatefulPartitionedCall/sequential_5/xception/block8_sepconv2/separable_conv2d/depthwise", "op": "DepthwiseConv2dNative", "input": ["StatefulPartitionedCall/sequential_5/xception/block8_sepconv2_act/Relu", "StatefulPartitionedCall/sequential_5/xception/block8_sepconv2/separable_conv2d/ReadVariableOp"], "attr": {"dilations": {"list": {"i": ["1", "1", "1", "1"]}}, "T": {"type": "DT_FLOAT"}, "strides": {"list": {"i": ["1", "1", "1", "1"]}}, "data_format": {"s": "TkhXQw=="}, "explicit_paddings": {"list": {}}, "padding": {"s": "U0FNRQ=="}}}, {"name": "StatefulPartitionedCall/sequential_5/xception/block8_sepconv3_act/Relu", "op": "_FusedConv2D", "input": ["StatefulPartitionedCall/sequential_5/xception/block8_sepconv2/separable_conv2d/depthwise", "StatefulPartitionedCall/sequential_5/xception/block8_sepconv2/separable_conv2d_weights", "StatefulPartitionedCall/sequential_5/xception/block8_sepconv2/separable_conv2d_bn_offset"], "device": "/device:CPU:0", "attr": {"dilations": {"list": {"i": ["1", "1", "1", "1"]}}, "T": {"type": "DT_FLOAT"}, "strides": {"list": {"i": ["1", "1", "1", "1"]}}, "data_format": {"s": "TkhXQw=="}, "use_cudnn_on_gpu": {"b": true}, "explicit_paddings": {"list": {}}, "num_args": {"i": "1"}, "epsilon": {"f": 0.0}, "padding": {"s": "VkFMSUQ="}, "fused_ops": {"list": {"s": ["Qmlhc0FkZA==", "UmVsdQ=="]}}, "leakyrelu_alpha": {"f": 0.2}}}, {"name": "StatefulPartitionedCall/sequential_5/xception/block8_sepconv3/separable_conv2d/depthwise", "op": "DepthwiseConv2dNative", "input": ["StatefulPartitionedCall/sequential_5/xception/block8_sepconv3_act/Relu", "StatefulPartitionedCall/sequential_5/xception/block8_sepconv3/separable_conv2d/ReadVariableOp"], "attr": {"dilations": {"list": {"i": ["1", "1", "1", "1"]}}, "T": {"type": "DT_FLOAT"}, "strides": {"list": {"i": ["1", "1", "1", "1"]}}, "data_format": {"s": "TkhXQw=="}, "explicit_paddings": {"list": {}}, "padding": {"s": "U0FNRQ=="}}}, {"name": "StatefulPartitionedCall/sequential_5/xception/block8_sepconv3_bn/FusedBatchNormV3", "op": "_FusedConv2D", "input": ["StatefulPartitionedCall/sequential_5/xception/block8_sepconv3/separable_conv2d/depthwise", "StatefulPartitionedCall/sequential_5/xception/block8_sepconv3/separable_conv2d_weights", "StatefulPartitionedCall/sequential_5/xception/block8_sepconv3/separable_conv2d_bn_offset"], "device": "/device:CPU:0", "attr": {"dilations": {"list": {"i": ["1", "1", "1", "1"]}}, "T": {"type": "DT_FLOAT"}, "strides": {"list": {"i": ["1", "1", "1", "1"]}}, "data_format": {"s": "TkhXQw=="}, "use_cudnn_on_gpu": {"b": true}, "explicit_paddings": {"list": {}}, "num_args": {"i": "1"}, "epsilon": {"f": 0.0}, "padding": {"s": "VkFMSUQ="}, "fused_ops": {"list": {"s": ["Qmlhc0FkZA=="]}}, "leakyrelu_alpha": {"f": 0.2}}}, {"name": "StatefulPartitionedCall/sequential_5/xception/add_18/add", "op": "AddV2", "input": ["StatefulPartitionedCall/sequential_5/xception/block8_sepconv3_bn/FusedBatchNormV3", "StatefulPartitionedCall/sequential_5/xception/add_17/add"], "attr": {"T": {"type": "DT_FLOAT"}}}, {"name": "StatefulPartitionedCall/sequential_5/xception/block9_sepconv1_act/Relu", "op": "Relu", "input": ["StatefulPartitionedCall/sequential_5/xception/add_18/add"], "attr": {"T": {"type": "DT_FLOAT"}}}, {"name": "StatefulPartitionedCall/sequential_5/xception/block9_sepconv1/separable_conv2d/depthwise", "op": "DepthwiseConv2dNative", "input": ["StatefulPartitionedCall/sequential_5/xception/block9_sepconv1_act/Relu", "StatefulPartitionedCall/sequential_5/xception/block9_sepconv1/separable_conv2d/ReadVariableOp"], "attr": {"dilations": {"list": {"i": ["1", "1", "1", "1"]}}, "T": {"type": "DT_FLOAT"}, "strides": {"list": {"i": ["1", "1", "1", "1"]}}, "data_format": {"s": "TkhXQw=="}, "explicit_paddings": {"list": {}}, "padding": {"s": "U0FNRQ=="}}}, {"name": "StatefulPartitionedCall/sequential_5/xception/block9_sepconv2_act/Relu", "op": "_FusedConv2D", "input": ["StatefulPartitionedCall/sequential_5/xception/block9_sepconv1/separable_conv2d/depthwise", "StatefulPartitionedCall/sequential_5/xception/block9_sepconv1/separable_conv2d_weights", "StatefulPartitionedCall/sequential_5/xception/block9_sepconv1/separable_conv2d_bn_offset"], "device": "/device:CPU:0", "attr": {"dilations": {"list": {"i": ["1", "1", "1", "1"]}}, "T": {"type": "DT_FLOAT"}, "strides": {"list": {"i": ["1", "1", "1", "1"]}}, "data_format": {"s": "TkhXQw=="}, "use_cudnn_on_gpu": {"b": true}, "explicit_paddings": {"list": {}}, "num_args": {"i": "1"}, "epsilon": {"f": 0.0}, "padding": {"s": "VkFMSUQ="}, "fused_ops": {"list": {"s": ["Qmlhc0FkZA==", "UmVsdQ=="]}}, "leakyrelu_alpha": {"f": 0.2}}}, {"name": "StatefulPartitionedCall/sequential_5/xception/block9_sepconv2/separable_conv2d/depthwise", "op": "DepthwiseConv2dNative", "input": ["StatefulPartitionedCall/sequential_5/xception/block9_sepconv2_act/Relu", "StatefulPartitionedCall/sequential_5/xception/block9_sepconv2/separable_conv2d/ReadVariableOp"], "attr": {"dilations": {"list": {"i": ["1", "1", "1", "1"]}}, "T": {"type": "DT_FLOAT"}, "strides": {"list": {"i": ["1", "1", "1", "1"]}}, "data_format": {"s": "TkhXQw=="}, "explicit_paddings": {"list": {}}, "padding": {"s": "U0FNRQ=="}}}, {"name": "StatefulPartitionedCall/sequential_5/xception/block9_sepconv3_act/Relu", "op": "_FusedConv2D", "input": ["StatefulPartitionedCall/sequential_5/xception/block9_sepconv2/separable_conv2d/depthwise", "StatefulPartitionedCall/sequential_5/xception/block9_sepconv2/separable_conv2d_weights", "StatefulPartitionedCall/sequential_5/xception/block9_sepconv2/separable_conv2d_bn_offset"], "device": "/device:CPU:0", "attr": {"dilations": {"list": {"i": ["1", "1", "1", "1"]}}, "T": {"type": "DT_FLOAT"}, "strides": {"list": {"i": ["1", "1", "1", "1"]}}, "data_format": {"s": "TkhXQw=="}, "use_cudnn_on_gpu": {"b": true}, "explicit_paddings": {"list": {}}, "num_args": {"i": "1"}, "epsilon": {"f": 0.0}, "padding": {"s": "VkFMSUQ="}, "fused_ops": {"list": {"s": ["Qmlhc0FkZA==", "UmVsdQ=="]}}, "leakyrelu_alpha": {"f": 0.2}}}, {"name": "StatefulPartitionedCall/sequential_5/xception/block9_sepconv3/separable_conv2d/depthwise", "op": "DepthwiseConv2dNative", "input": ["StatefulPartitionedCall/sequential_5/xception/block9_sepconv3_act/Relu", "StatefulPartitionedCall/sequential_5/xception/block9_sepconv3/separable_conv2d/ReadVariableOp"], "attr": {"dilations": {"list": {"i": ["1", "1", "1", "1"]}}, "T": {"type": "DT_FLOAT"}, "strides": {"list": {"i": ["1", "1", "1", "1"]}}, "data_format": {"s": "TkhXQw=="}, "explicit_paddings": {"list": {}}, "padding": {"s": "U0FNRQ=="}}}, {"name": "StatefulPartitionedCall/sequential_5/xception/block9_sepconv3_bn/FusedBatchNormV3", "op": "_FusedConv2D", "input": ["StatefulPartitionedCall/sequential_5/xception/block9_sepconv3/separable_conv2d/depthwise", "StatefulPartitionedCall/sequential_5/xception/block9_sepconv3/separable_conv2d_weights", "StatefulPartitionedCall/sequential_5/xception/block9_sepconv3/separable_conv2d_bn_offset"], "device": "/device:CPU:0", "attr": {"dilations": {"list": {"i": ["1", "1", "1", "1"]}}, "T": {"type": "DT_FLOAT"}, "strides": {"list": {"i": ["1", "1", "1", "1"]}}, "data_format": {"s": "TkhXQw=="}, "use_cudnn_on_gpu": {"b": true}, "explicit_paddings": {"list": {}}, "num_args": {"i": "1"}, "epsilon": {"f": 0.0}, "padding": {"s": "VkFMSUQ="}, "fused_ops": {"list": {"s": ["Qmlhc0FkZA=="]}}, "leakyrelu_alpha": {"f": 0.2}}}, {"name": "StatefulPartitionedCall/sequential_5/xception/add_19/add", "op": "AddV2", "input": ["StatefulPartitionedCall/sequential_5/xception/block9_sepconv3_bn/FusedBatchNormV3", "StatefulPartitionedCall/sequential_5/xception/add_18/add"], "attr": {"T": {"type": "DT_FLOAT"}}}, {"name": "StatefulPartitionedCall/sequential_5/xception/block10_sepconv1_act/Relu", "op": "Relu", "input": ["StatefulPartitionedCall/sequential_5/xception/add_19/add"], "attr": {"T": {"type": "DT_FLOAT"}}}, {"name": "StatefulPartitionedCall/sequential_5/xception/block10_sepconv1/separable_conv2d/depthwise", "op": "DepthwiseConv2dNative", "input": ["StatefulPartitionedCall/sequential_5/xception/block10_sepconv1_act/Relu", "StatefulPartitionedCall/sequential_5/xception/block10_sepconv1/separable_conv2d/ReadVariableOp"], "attr": {"dilations": {"list": {"i": ["1", "1", "1", "1"]}}, "T": {"type": "DT_FLOAT"}, "strides": {"list": {"i": ["1", "1", "1", "1"]}}, "data_format": {"s": "TkhXQw=="}, "explicit_paddings": {"list": {}}, "padding": {"s": "U0FNRQ=="}}}, {"name": "StatefulPartitionedCall/sequential_5/xception/block10_sepconv2_act/Relu", "op": "_FusedConv2D", "input": ["StatefulPartitionedCall/sequential_5/xception/block10_sepconv1/separable_conv2d/depthwise", "StatefulPartitionedCall/sequential_5/xception/block10_sepconv1/separable_conv2d_weights", "StatefulPartitionedCall/sequential_5/xception/block10_sepconv1/separable_conv2d_bn_offset"], "device": "/device:CPU:0", "attr": {"dilations": {"list": {"i": ["1", "1", "1", "1"]}}, "T": {"type": "DT_FLOAT"}, "strides": {"list": {"i": ["1", "1", "1", "1"]}}, "data_format": {"s": "TkhXQw=="}, "use_cudnn_on_gpu": {"b": true}, "explicit_paddings": {"list": {}}, "num_args": {"i": "1"}, "epsilon": {"f": 0.0}, "padding": {"s": "VkFMSUQ="}, "fused_ops": {"list": {"s": ["Qmlhc0FkZA==", "UmVsdQ=="]}}, "leakyrelu_alpha": {"f": 0.2}}}, {"name": "StatefulPartitionedCall/sequential_5/xception/block10_sepconv2/separable_conv2d/depthwise", "op": "DepthwiseConv2dNative", "input": ["StatefulPartitionedCall/sequential_5/xception/block10_sepconv2_act/Relu", "StatefulPartitionedCall/sequential_5/xception/block10_sepconv2/separable_conv2d/ReadVariableOp"], "attr": {"dilations": {"list": {"i": ["1", "1", "1", "1"]}}, "T": {"type": "DT_FLOAT"}, "strides": {"list": {"i": ["1", "1", "1", "1"]}}, "data_format": {"s": "TkhXQw=="}, "explicit_paddings": {"list": {}}, "padding": {"s": "U0FNRQ=="}}}, {"name": "StatefulPartitionedCall/sequential_5/xception/block10_sepconv3_act/Relu", "op": "_FusedConv2D", "input": ["StatefulPartitionedCall/sequential_5/xception/block10_sepconv2/separable_conv2d/depthwise", "StatefulPartitionedCall/sequential_5/xception/block10_sepconv2/separable_conv2d_weights", "StatefulPartitionedCall/sequential_5/xception/block10_sepconv2/separable_conv2d_bn_offset"], "device": "/device:CPU:0", "attr": {"dilations": {"list": {"i": ["1", "1", "1", "1"]}}, "T": {"type": "DT_FLOAT"}, "strides": {"list": {"i": ["1", "1", "1", "1"]}}, "data_format": {"s": "TkhXQw=="}, "use_cudnn_on_gpu": {"b": true}, "explicit_paddings": {"list": {}}, "num_args": {"i": "1"}, "epsilon": {"f": 0.0}, "padding": {"s": "VkFMSUQ="}, "fused_ops": {"list": {"s": ["Qmlhc0FkZA==", "UmVsdQ=="]}}, "leakyrelu_alpha": {"f": 0.2}}}, {"name": "StatefulPartitionedCall/sequential_5/xception/block10_sepconv3/separable_conv2d/depthwise", "op": "DepthwiseConv2dNative", "input": ["StatefulPartitionedCall/sequential_5/xception/block10_sepconv3_act/Relu", "StatefulPartitionedCall/sequential_5/xception/block10_sepconv3/separable_conv2d/ReadVariableOp"], "attr": {"dilations": {"list": {"i": ["1", "1", "1", "1"]}}, "T": {"type": "DT_FLOAT"}, "strides": {"list": {"i": ["1", "1", "1", "1"]}}, "data_format": {"s": "TkhXQw=="}, "explicit_paddings": {"list": {}}, "padding": {"s": "U0FNRQ=="}}}, {"name": "StatefulPartitionedCall/sequential_5/xception/block10_sepconv3_bn/FusedBatchNormV3", "op": "_FusedConv2D", "input": ["StatefulPartitionedCall/sequential_5/xception/block10_sepconv3/separable_conv2d/depthwise", "StatefulPartitionedCall/sequential_5/xception/block10_sepconv3/separable_conv2d_weights", "StatefulPartitionedCall/sequential_5/xception/block10_sepconv3/separable_conv2d_bn_offset"], "device": "/device:CPU:0", "attr": {"dilations": {"list": {"i": ["1", "1", "1", "1"]}}, "T": {"type": "DT_FLOAT"}, "strides": {"list": {"i": ["1", "1", "1", "1"]}}, "data_format": {"s": "TkhXQw=="}, "use_cudnn_on_gpu": {"b": true}, "explicit_paddings": {"list": {}}, "num_args": {"i": "1"}, "epsilon": {"f": 0.0}, "padding": {"s": "VkFMSUQ="}, "fused_ops": {"list": {"s": ["Qmlhc0FkZA=="]}}, "leakyrelu_alpha": {"f": 0.2}}}, {"name": "StatefulPartitionedCall/sequential_5/xception/add_20/add", "op": "AddV2", "input": ["StatefulPartitionedCall/sequential_5/xception/block10_sepconv3_bn/FusedBatchNormV3", "StatefulPartitionedCall/sequential_5/xception/add_19/add"], "attr": {"T": {"type": "DT_FLOAT"}}}, {"name": "StatefulPartitionedCall/sequential_5/xception/block11_sepconv1_act/Relu", "op": "Relu", "input": ["StatefulPartitionedCall/sequential_5/xception/add_20/add"], "attr": {"T": {"type": "DT_FLOAT"}}}, {"name": "StatefulPartitionedCall/sequential_5/xception/block11_sepconv1/separable_conv2d/depthwise", "op": "DepthwiseConv2dNative", "input": ["StatefulPartitionedCall/sequential_5/xception/block11_sepconv1_act/Relu", "StatefulPartitionedCall/sequential_5/xception/block11_sepconv1/separable_conv2d/ReadVariableOp"], "attr": {"dilations": {"list": {"i": ["1", "1", "1", "1"]}}, "T": {"type": "DT_FLOAT"}, "strides": {"list": {"i": ["1", "1", "1", "1"]}}, "data_format": {"s": "TkhXQw=="}, "explicit_paddings": {"list": {}}, "padding": {"s": "U0FNRQ=="}}}, {"name": "StatefulPartitionedCall/sequential_5/xception/block11_sepconv2_act/Relu", "op": "_FusedConv2D", "input": ["StatefulPartitionedCall/sequential_5/xception/block11_sepconv1/separable_conv2d/depthwise", "StatefulPartitionedCall/sequential_5/xception/block11_sepconv1/separable_conv2d_weights", "StatefulPartitionedCall/sequential_5/xception/block11_sepconv1/separable_conv2d_bn_offset"], "device": "/device:CPU:0", "attr": {"dilations": {"list": {"i": ["1", "1", "1", "1"]}}, "T": {"type": "DT_FLOAT"}, "strides": {"list": {"i": ["1", "1", "1", "1"]}}, "data_format": {"s": "TkhXQw=="}, "use_cudnn_on_gpu": {"b": true}, "explicit_paddings": {"list": {}}, "num_args": {"i": "1"}, "epsilon": {"f": 0.0}, "padding": {"s": "VkFMSUQ="}, "fused_ops": {"list": {"s": ["Qmlhc0FkZA==", "UmVsdQ=="]}}, "leakyrelu_alpha": {"f": 0.2}}}, {"name": "StatefulPartitionedCall/sequential_5/xception/block11_sepconv2/separable_conv2d/depthwise", "op": "DepthwiseConv2dNative", "input": ["StatefulPartitionedCall/sequential_5/xception/block11_sepconv2_act/Relu", "StatefulPartitionedCall/sequential_5/xception/block11_sepconv2/separable_conv2d/ReadVariableOp"], "attr": {"dilations": {"list": {"i": ["1", "1", "1", "1"]}}, "T": {"type": "DT_FLOAT"}, "strides": {"list": {"i": ["1", "1", "1", "1"]}}, "data_format": {"s": "TkhXQw=="}, "explicit_paddings": {"list": {}}, "padding": {"s": "U0FNRQ=="}}}, {"name": "StatefulPartitionedCall/sequential_5/xception/block11_sepconv3_act/Relu", "op": "_FusedConv2D", "input": ["StatefulPartitionedCall/sequential_5/xception/block11_sepconv2/separable_conv2d/depthwise", "StatefulPartitionedCall/sequential_5/xception/block11_sepconv2/separable_conv2d_weights", "StatefulPartitionedCall/sequential_5/xception/block11_sepconv2/separable_conv2d_bn_offset"], "device": "/device:CPU:0", "attr": {"dilations": {"list": {"i": ["1", "1", "1", "1"]}}, "T": {"type": "DT_FLOAT"}, "strides": {"list": {"i": ["1", "1", "1", "1"]}}, "data_format": {"s": "TkhXQw=="}, "use_cudnn_on_gpu": {"b": true}, "explicit_paddings": {"list": {}}, "num_args": {"i": "1"}, "epsilon": {"f": 0.0}, "padding": {"s": "VkFMSUQ="}, "fused_ops": {"list": {"s": ["Qmlhc0FkZA==", "UmVsdQ=="]}}, "leakyrelu_alpha": {"f": 0.2}}}, {"name": "StatefulPartitionedCall/sequential_5/xception/block11_sepconv3/separable_conv2d/depthwise", "op": "DepthwiseConv2dNative", "input": ["StatefulPartitionedCall/sequential_5/xception/block11_sepconv3_act/Relu", "StatefulPartitionedCall/sequential_5/xception/block11_sepconv3/separable_conv2d/ReadVariableOp"], "attr": {"dilations": {"list": {"i": ["1", "1", "1", "1"]}}, "T": {"type": "DT_FLOAT"}, "strides": {"list": {"i": ["1", "1", "1", "1"]}}, "data_format": {"s": "TkhXQw=="}, "explicit_paddings": {"list": {}}, "padding": {"s": "U0FNRQ=="}}}, {"name": "StatefulPartitionedCall/sequential_5/xception/block11_sepconv3_bn/FusedBatchNormV3", "op": "_FusedConv2D", "input": ["StatefulPartitionedCall/sequential_5/xception/block11_sepconv3/separable_conv2d/depthwise", "StatefulPartitionedCall/sequential_5/xception/block11_sepconv3/separable_conv2d_weights", "StatefulPartitionedCall/sequential_5/xception/block11_sepconv3/separable_conv2d_bn_offset"], "device": "/device:CPU:0", "attr": {"dilations": {"list": {"i": ["1", "1", "1", "1"]}}, "T": {"type": "DT_FLOAT"}, "strides": {"list": {"i": ["1", "1", "1", "1"]}}, "data_format": {"s": "TkhXQw=="}, "use_cudnn_on_gpu": {"b": true}, "explicit_paddings": {"list": {}}, "num_args": {"i": "1"}, "epsilon": {"f": 0.0}, "padding": {"s": "VkFMSUQ="}, "fused_ops": {"list": {"s": ["Qmlhc0FkZA=="]}}, "leakyrelu_alpha": {"f": 0.2}}}, {"name": "StatefulPartitionedCall/sequential_5/xception/add_21/add", "op": "AddV2", "input": ["StatefulPartitionedCall/sequential_5/xception/block11_sepconv3_bn/FusedBatchNormV3", "StatefulPartitionedCall/sequential_5/xception/add_20/add"], "attr": {"T": {"type": "DT_FLOAT"}}}, {"name": "StatefulPartitionedCall/sequential_5/xception/block12_sepconv1_act/Relu", "op": "Relu", "input": ["StatefulPartitionedCall/sequential_5/xception/add_21/add"], "attr": {"T": {"type": "DT_FLOAT"}}}, {"name": "StatefulPartitionedCall/sequential_5/xception/block12_sepconv1/separable_conv2d/depthwise", "op": "DepthwiseConv2dNative", "input": ["StatefulPartitionedCall/sequential_5/xception/block12_sepconv1_act/Relu", "StatefulPartitionedCall/sequential_5/xception/block12_sepconv1/separable_conv2d/ReadVariableOp"], "attr": {"dilations": {"list": {"i": ["1", "1", "1", "1"]}}, "T": {"type": "DT_FLOAT"}, "strides": {"list": {"i": ["1", "1", "1", "1"]}}, "data_format": {"s": "TkhXQw=="}, "explicit_paddings": {"list": {}}, "padding": {"s": "U0FNRQ=="}}}, {"name": "StatefulPartitionedCall/sequential_5/xception/block12_sepconv2_act/Relu", "op": "_FusedConv2D", "input": ["StatefulPartitionedCall/sequential_5/xception/block12_sepconv1/separable_conv2d/depthwise", "StatefulPartitionedCall/sequential_5/xception/block12_sepconv1/separable_conv2d_weights", "StatefulPartitionedCall/sequential_5/xception/block12_sepconv1/separable_conv2d_bn_offset"], "device": "/device:CPU:0", "attr": {"dilations": {"list": {"i": ["1", "1", "1", "1"]}}, "T": {"type": "DT_FLOAT"}, "strides": {"list": {"i": ["1", "1", "1", "1"]}}, "data_format": {"s": "TkhXQw=="}, "use_cudnn_on_gpu": {"b": true}, "explicit_paddings": {"list": {}}, "num_args": {"i": "1"}, "epsilon": {"f": 0.0}, "padding": {"s": "VkFMSUQ="}, "fused_ops": {"list": {"s": ["Qmlhc0FkZA==", "UmVsdQ=="]}}, "leakyrelu_alpha": {"f": 0.2}}}, {"name": "StatefulPartitionedCall/sequential_5/xception/block12_sepconv2/separable_conv2d/depthwise", "op": "DepthwiseConv2dNative", "input": ["StatefulPartitionedCall/sequential_5/xception/block12_sepconv2_act/Relu", "StatefulPartitionedCall/sequential_5/xception/block12_sepconv2/separable_conv2d/ReadVariableOp"], "attr": {"dilations": {"list": {"i": ["1", "1", "1", "1"]}}, "T": {"type": "DT_FLOAT"}, "strides": {"list": {"i": ["1", "1", "1", "1"]}}, "data_format": {"s": "TkhXQw=="}, "explicit_paddings": {"list": {}}, "padding": {"s": "U0FNRQ=="}}}, {"name": "StatefulPartitionedCall/sequential_5/xception/block12_sepconv3_act/Relu", "op": "_FusedConv2D", "input": ["StatefulPartitionedCall/sequential_5/xception/block12_sepconv2/separable_conv2d/depthwise", "StatefulPartitionedCall/sequential_5/xception/block12_sepconv2/separable_conv2d_weights", "StatefulPartitionedCall/sequential_5/xception/block12_sepconv2/separable_conv2d_bn_offset"], "device": "/device:CPU:0", "attr": {"dilations": {"list": {"i": ["1", "1", "1", "1"]}}, "T": {"type": "DT_FLOAT"}, "strides": {"list": {"i": ["1", "1", "1", "1"]}}, "data_format": {"s": "TkhXQw=="}, "use_cudnn_on_gpu": {"b": true}, "explicit_paddings": {"list": {}}, "num_args": {"i": "1"}, "epsilon": {"f": 0.0}, "padding": {"s": "VkFMSUQ="}, "fused_ops": {"list": {"s": ["Qmlhc0FkZA==", "UmVsdQ=="]}}, "leakyrelu_alpha": {"f": 0.2}}}, {"name": "StatefulPartitionedCall/sequential_5/xception/block12_sepconv3/separable_conv2d/depthwise", "op": "DepthwiseConv2dNative", "input": ["StatefulPartitionedCall/sequential_5/xception/block12_sepconv3_act/Relu", "StatefulPartitionedCall/sequential_5/xception/block12_sepconv3/separable_conv2d/ReadVariableOp"], "attr": {"dilations": {"list": {"i": ["1", "1", "1", "1"]}}, "T": {"type": "DT_FLOAT"}, "strides": {"list": {"i": ["1", "1", "1", "1"]}}, "data_format": {"s": "TkhXQw=="}, "explicit_paddings": {"list": {}}, "padding": {"s": "U0FNRQ=="}}}, {"name": "StatefulPartitionedCall/sequential_5/xception/block12_sepconv3_bn/FusedBatchNormV3", "op": "_FusedConv2D", "input": ["StatefulPartitionedCall/sequential_5/xception/block12_sepconv3/separable_conv2d/depthwise", "StatefulPartitionedCall/sequential_5/xception/block12_sepconv3/separable_conv2d_weights", "StatefulPartitionedCall/sequential_5/xception/block12_sepconv3/separable_conv2d_bn_offset"], "device": "/device:CPU:0", "attr": {"dilations": {"list": {"i": ["1", "1", "1", "1"]}}, "T": {"type": "DT_FLOAT"}, "strides": {"list": {"i": ["1", "1", "1", "1"]}}, "data_format": {"s": "TkhXQw=="}, "use_cudnn_on_gpu": {"b": true}, "explicit_paddings": {"list": {}}, "num_args": {"i": "1"}, "epsilon": {"f": 0.0}, "padding": {"s": "VkFMSUQ="}, "fused_ops": {"list": {"s": ["Qmlhc0FkZA=="]}}, "leakyrelu_alpha": {"f": 0.2}}}, {"name": "StatefulPartitionedCall/sequential_5/xception/add_22/add", "op": "AddV2", "input": ["StatefulPartitionedCall/sequential_5/xception/block12_sepconv3_bn/FusedBatchNormV3", "StatefulPartitionedCall/sequential_5/xception/add_21/add"], "attr": {"T": {"type": "DT_FLOAT"}}}, {"name": "StatefulPartitionedCall/sequential_5/xception/block13_sepconv1_act/Relu", "op": "Relu", "input": ["StatefulPartitionedCall/sequential_5/xception/add_22/add"], "attr": {"T": {"type": "DT_FLOAT"}}}, {"name": "StatefulPartitionedCall/sequential_5/xception/batch_normalization_7/FusedBatchNormV3", "op": "_FusedConv2D", "input": ["StatefulPartitionedCall/sequential_5/xception/add_22/add", "StatefulPartitionedCall/sequential_5/xception/conv2d_7/Conv2D_weights", "StatefulPartitionedCall/sequential_5/xception/conv2d_7/Conv2D_bn_offset"], "device": "/device:CPU:0", "attr": {"dilations": {"list": {"i": ["1", "1", "1", "1"]}}, "T": {"type": "DT_FLOAT"}, "strides": {"list": {"i": ["1", "2", "2", "1"]}}, "data_format": {"s": "TkhXQw=="}, "use_cudnn_on_gpu": {"b": true}, "explicit_paddings": {"list": {}}, "num_args": {"i": "1"}, "epsilon": {"f": 0.0}, "padding": {"s": "U0FNRQ=="}, "fused_ops": {"list": {"s": ["Qmlhc0FkZA=="]}}, "leakyrelu_alpha": {"f": 0.2}}}, {"name": "StatefulPartitionedCall/sequential_5/xception/block13_sepconv1/separable_conv2d/depthwise", "op": "DepthwiseConv2dNative", "input": ["StatefulPartitionedCall/sequential_5/xception/block13_sepconv1_act/Relu", "StatefulPartitionedCall/sequential_5/xception/block13_sepconv1/separable_conv2d/ReadVariableOp"], "attr": {"dilations": {"list": {"i": ["1", "1", "1", "1"]}}, "T": {"type": "DT_FLOAT"}, "strides": {"list": {"i": ["1", "1", "1", "1"]}}, "data_format": {"s": "TkhXQw=="}, "explicit_paddings": {"list": {}}, "padding": {"s": "U0FNRQ=="}}}, {"name": "StatefulPartitionedCall/sequential_5/xception/block13_sepconv2_act/Relu", "op": "_FusedConv2D", "input": ["StatefulPartitionedCall/sequential_5/xception/block13_sepconv1/separable_conv2d/depthwise", "StatefulPartitionedCall/sequential_5/xception/block13_sepconv1/separable_conv2d_weights", "StatefulPartitionedCall/sequential_5/xception/block13_sepconv1/separable_conv2d_bn_offset"], "device": "/device:CPU:0", "attr": {"dilations": {"list": {"i": ["1", "1", "1", "1"]}}, "T": {"type": "DT_FLOAT"}, "strides": {"list": {"i": ["1", "1", "1", "1"]}}, "data_format": {"s": "TkhXQw=="}, "use_cudnn_on_gpu": {"b": true}, "explicit_paddings": {"list": {}}, "num_args": {"i": "1"}, "epsilon": {"f": 0.0}, "padding": {"s": "VkFMSUQ="}, "fused_ops": {"list": {"s": ["Qmlhc0FkZA==", "UmVsdQ=="]}}, "leakyrelu_alpha": {"f": 0.2}}}, {"name": "StatefulPartitionedCall/sequential_5/xception/block13_sepconv2/separable_conv2d/depthwise", "op": "DepthwiseConv2dNative", "input": ["StatefulPartitionedCall/sequential_5/xception/block13_sepconv2_act/Relu", "StatefulPartitionedCall/sequential_5/xception/block13_sepconv2/separable_conv2d/ReadVariableOp"], "attr": {"dilations": {"list": {"i": ["1", "1", "1", "1"]}}, "T": {"type": "DT_FLOAT"}, "strides": {"list": {"i": ["1", "1", "1", "1"]}}, "data_format": {"s": "TkhXQw=="}, "explicit_paddings": {"list": {}}, "padding": {"s": "U0FNRQ=="}}}, {"name": "StatefulPartitionedCall/sequential_5/xception/block13_sepconv2_bn/FusedBatchNormV3", "op": "_FusedConv2D", "input": ["StatefulPartitionedCall/sequential_5/xception/block13_sepconv2/separable_conv2d/depthwise", "StatefulPartitionedCall/sequential_5/xception/block13_sepconv2/separable_conv2d_weights", "StatefulPartitionedCall/sequential_5/xception/block13_sepconv2/separable_conv2d_bn_offset"], "device": "/device:CPU:0", "attr": {"dilations": {"list": {"i": ["1", "1", "1", "1"]}}, "T": {"type": "DT_FLOAT"}, "strides": {"list": {"i": ["1", "1", "1", "1"]}}, "data_format": {"s": "TkhXQw=="}, "use_cudnn_on_gpu": {"b": true}, "explicit_paddings": {"list": {}}, "num_args": {"i": "1"}, "epsilon": {"f": 0.0}, "padding": {"s": "VkFMSUQ="}, "fused_ops": {"list": {"s": ["Qmlhc0FkZA=="]}}, "leakyrelu_alpha": {"f": 0.2}}}, {"name": "StatefulPartitionedCall/sequential_5/xception/block13_pool/MaxPool", "op": "MaxPool", "input": ["StatefulPartitionedCall/sequential_5/xception/block13_sepconv2_bn/FusedBatchNormV3"], "attr": {"T": {"type": "DT_FLOAT"}, "strides": {"list": {"i": ["1", "2", "2", "1"]}}, "data_format": {"s": "TkhXQw=="}, "explicit_paddings": {"list": {}}, "ksize": {"list": {"i": ["1", "3", "3", "1"]}}, "padding": {"s": "U0FNRQ=="}}}, {"name": "StatefulPartitionedCall/sequential_5/xception/add_23/add", "op": "AddV2", "input": ["StatefulPartitionedCall/sequential_5/xception/block13_pool/MaxPool", "StatefulPartitionedCall/sequential_5/xception/batch_normalization_7/FusedBatchNormV3"], "attr": {"T": {"type": "DT_FLOAT"}}}, {"name": "StatefulPartitionedCall/sequential_5/xception/block14_sepconv1/separable_conv2d/depthwise", "op": "DepthwiseConv2dNative", "input": ["StatefulPartitionedCall/sequential_5/xception/add_23/add", "StatefulPartitionedCall/sequential_5/xception/block14_sepconv1/separable_conv2d/ReadVariableOp"], "attr": {"dilations": {"list": {"i": ["1", "1", "1", "1"]}}, "T": {"type": "DT_FLOAT"}, "strides": {"list": {"i": ["1", "1", "1", "1"]}}, "data_format": {"s": "TkhXQw=="}, "explicit_paddings": {"list": {}}, "padding": {"s": "U0FNRQ=="}}}, {"name": "StatefulPartitionedCall/sequential_5/xception/block14_sepconv1_act/Relu", "op": "_FusedConv2D", "input": ["StatefulPartitionedCall/sequential_5/xception/block14_sepconv1/separable_conv2d/depthwise", "StatefulPartitionedCall/sequential_5/xception/block14_sepconv1/separable_conv2d_weights", "StatefulPartitionedCall/sequential_5/xception/block14_sepconv1/separable_conv2d_bn_offset"], "device": "/device:CPU:0", "attr": {"dilations": {"list": {"i": ["1", "1", "1", "1"]}}, "T": {"type": "DT_FLOAT"}, "strides": {"list": {"i": ["1", "1", "1", "1"]}}, "data_format": {"s": "TkhXQw=="}, "use_cudnn_on_gpu": {"b": true}, "explicit_paddings": {"list": {}}, "num_args": {"i": "1"}, "epsilon": {"f": 0.0}, "padding": {"s": "VkFMSUQ="}, "fused_ops": {"list": {"s": ["Qmlhc0FkZA==", "UmVsdQ=="]}}, "leakyrelu_alpha": {"f": 0.2}}}, {"name": "StatefulPartitionedCall/sequential_5/xception/block14_sepconv2/separable_conv2d/depthwise", "op": "DepthwiseConv2dNative", "input": ["StatefulPartitionedCall/sequential_5/xception/block14_sepconv1_act/Relu", "StatefulPartitionedCall/sequential_5/xception/block14_sepconv2/separable_conv2d/ReadVariableOp"], "attr": {"dilations": {"list": {"i": ["1", "1", "1", "1"]}}, "T": {"type": "DT_FLOAT"}, "strides": {"list": {"i": ["1", "1", "1", "1"]}}, "data_format": {"s": "TkhXQw=="}, "explicit_paddings": {"list": {}}, "padding": {"s": "U0FNRQ=="}}}, {"name": "StatefulPartitionedCall/sequential_5/xception/block14_sepconv2_act/Relu", "op": "_FusedConv2D", "input": ["StatefulPartitionedCall/sequential_5/xception/block14_sepconv2/separable_conv2d/depthwise", "StatefulPartitionedCall/sequential_5/xception/block14_sepconv2/separable_conv2d_weights", "StatefulPartitionedCall/sequential_5/xception/block14_sepconv2/separable_conv2d_bn_offset"], "device": "/device:CPU:0", "attr": {"dilations": {"list": {"i": ["1", "1", "1", "1"]}}, "T": {"type": "DT_FLOAT"}, "strides": {"list": {"i": ["1", "1", "1", "1"]}}, "data_format": {"s": "TkhXQw=="}, "use_cudnn_on_gpu": {"b": true}, "explicit_paddings": {"list": {}}, "num_args": {"i": "1"}, "epsilon": {"f": 0.0}, "padding": {"s": "VkFMSUQ="}, "fused_ops": {"list": {"s": ["Qmlhc0FkZA==", "UmVsdQ=="]}}, "leakyrelu_alpha": {"f": 0.2}}}, {"name": "StatefulPartitionedCall/sequential_5/xception/global_max_pooling2d_1/Max", "op": "Max", "input": ["StatefulPartitionedCall/sequential_5/xception/block14_sepconv2_act/Relu", "StatefulPartitionedCall/sequential_5/xception/global_max_pooling2d_1/Max/reduction_indices"], "attr": {"keep_dims": {"b": false}, "Tidx": {"type": "DT_INT32"}, "T": {"type": "DT_FLOAT"}}}, {"name": "StatefulPartitionedCall/sequential_5/dense_11/Relu", "op": "_FusedMatMul", "input": ["StatefulPartitionedCall/sequential_5/xception/global_max_pooling2d_1/Max", "StatefulPartitionedCall/sequential_5/dense_11/MatMul/ReadVariableOp", "StatefulPartitionedCall/sequential_5/dense_11/BiasAdd/ReadVariableOp"], "device": "/device:CPU:0", "attr": {"transpose_b": {"b": false}, "T": {"type": "DT_FLOAT"}, "num_args": {"i": "1"}, "epsilon": {"f": 0.0}, "fused_ops": {"list": {"s": ["Qmlhc0FkZA==", "UmVsdQ=="]}}, "transpose_a": {"b": false}, "leakyrelu_alpha": {"f": 0.2}}}, {"name": "StatefulPartitionedCall/sequential_5/dense_12/BiasAdd", "op": "_FusedMatMul", "input": ["StatefulPartitionedCall/sequential_5/dense_11/Relu", "StatefulPartitionedCall/sequential_5/dense_12/MatMul/ReadVariableOp", "StatefulPartitionedCall/sequential_5/dense_12/BiasAdd/ReadVariableOp"], "device": "/device:CPU:0", "attr": {"transpose_b": {"b": false}, "T": {"type": "DT_FLOAT"}, "num_args": {"i": "1"}, "epsilon": {"f": 0.0}, "fused_ops": {"list": {"s": ["Qmlhc0FkZA=="]}}, "transpose_a": {"b": false}, "leakyrelu_alpha": {"f": 0.2}}}, {"name": "Identity", "op": "Identity", "input": ["StatefulPartitionedCall/sequential_5/dense_12/BiasAdd"], "attr": {"T": {"type": "DT_FLOAT"}}}], "library": {}, "versions": {"producer": 1205}}, "weightsManifest": [{"paths": ["group1-shard1of22.bin", "group1-shard2of22.bin", "group1-shard3of22.bin", "group1-shard4of22.bin", "group1-shard5of22.bin", "group1-shard6of22.bin", "group1-shard7of22.bin", "group1-shard8of22.bin", "group1-shard9of22.bin", "group1-shard10of22.bin", "group1-shard11of22.bin", "group1-shard12of22.bin", "group1-shard13of22.bin", "group1-shard14of22.bin", "group1-shard15of22.bin", "group1-shard16of22.bin", "group1-shard17of22.bin", "group1-shard18of22.bin", "group1-shard19of22.bin", "group1-shard20of22.bin", "group1-shard21of22.bin", "group1-shard22of22.bin"], "weights": [{"name": "StatefulPartitionedCall/sequential_5/xception/block13_sepconv1/separable_conv2d/ReadVariableOp", "shape": [3, 3, 728, 1], "dtype": "float32"}, {"name": "StatefulPartitionedCall/sequential_5/xception/block13_sepconv2/separable_conv2d/ReadVariableOp", "shape": [3, 3, 728, 1], "dtype": "float32"}, {"name": "StatefulPartitionedCall/sequential_5/xception/block12_sepconv1/separable_conv2d/ReadVariableOp", "shape": [3, 3, 728, 1], "dtype": "float32"}, {"name": "StatefulPartitionedCall/sequential_5/xception/block12_sepconv2/separable_conv2d/ReadVariableOp", "shape": [3, 3, 728, 1], "dtype": "float32"}, {"name": "StatefulPartitionedCall/sequential_5/xception/block12_sepconv3/separable_conv2d/ReadVariableOp", "shape": [3, 3, 728, 1], "dtype": "float32"}, {"name": "StatefulPartitionedCall/sequential_5/xception/block11_sepconv1/separable_conv2d/ReadVariableOp", "shape": [3, 3, 728, 1], "dtype": "float32"}, {"name": "StatefulPartitionedCall/sequential_5/xception/block11_sepconv2/separable_conv2d/ReadVariableOp", "shape": [3, 3, 728, 1], "dtype": "float32"}, {"name": "StatefulPartitionedCall/sequential_5/xception/block11_sepconv3/separable_conv2d/ReadVariableOp", "shape": [3, 3, 728, 1], "dtype": "float32"}, {"name": "StatefulPartitionedCall/sequential_5/xception/block10_sepconv1/separable_conv2d/ReadVariableOp", "shape": [3, 3, 728, 1], "dtype": "float32"}, {"name": "StatefulPartitionedCall/sequential_5/xception/block10_sepconv2/separable_conv2d/ReadVariableOp", "shape": [3, 3, 728, 1], "dtype": "float32"}, {"name": "StatefulPartitionedCall/sequential_5/xception/block10_sepconv3/separable_conv2d/ReadVariableOp", "shape": [3, 3, 728, 1], "dtype": "float32"}, {"name": "StatefulPartitionedCall/sequential_5/xception/block9_sepconv1/separable_conv2d/ReadVariableOp", "shape": [3, 3, 728, 1], "dtype": "float32"}, {"name": "StatefulPartitionedCall/sequential_5/xception/block9_sepconv2/separable_conv2d/ReadVariableOp", "shape": [3, 3, 728, 1], "dtype": "float32"}, {"name": "StatefulPartitionedCall/sequential_5/xception/block9_sepconv3/separable_conv2d/ReadVariableOp", "shape": [3, 3, 728, 1], "dtype": "float32"}, {"name": "StatefulPartitionedCall/sequential_5/xception/block8_sepconv1/separable_conv2d/ReadVariableOp", "shape": [3, 3, 728, 1], "dtype": "float32"}, {"name": "StatefulPartitionedCall/sequential_5/xception/block8_sepconv2/separable_conv2d/ReadVariableOp", "shape": [3, 3, 728, 1], "dtype": "float32"}, {"name": "StatefulPartitionedCall/sequential_5/xception/block8_sepconv3/separable_conv2d/ReadVariableOp", "shape": [3, 3, 728, 1], "dtype": "float32"}, {"name": "StatefulPartitionedCall/sequential_5/xception/block7_sepconv1/separable_conv2d/ReadVariableOp", "shape": [3, 3, 728, 1], "dtype": "float32"}, {"name": "StatefulPartitionedCall/sequential_5/xception/block7_sepconv2/separable_conv2d/ReadVariableOp", "shape": [3, 3, 728, 1], "dtype": "float32"}, {"name": "StatefulPartitionedCall/sequential_5/xception/block7_sepconv3/separable_conv2d/ReadVariableOp", "shape": [3, 3, 728, 1], "dtype": "float32"}, {"name": "StatefulPartitionedCall/sequential_5/xception/block6_sepconv1/separable_conv2d/ReadVariableOp", "shape": [3, 3, 728, 1], "dtype": "float32"}, {"name": "StatefulPartitionedCall/sequential_5/xception/block6_sepconv2/separable_conv2d/ReadVariableOp", "shape": [3, 3, 728, 1], "dtype": "float32"}, {"name": "StatefulPartitionedCall/sequential_5/xception/block6_sepconv3/separable_conv2d/ReadVariableOp", "shape": [3, 3, 728, 1], "dtype": "float32"}, {"name": "StatefulPartitionedCall/sequential_5/xception/block5_sepconv1/separable_conv2d/ReadVariableOp", "shape": [3, 3, 728, 1], "dtype": "float32"}, {"name": "StatefulPartitionedCall/sequential_5/xception/block5_sepconv2/separable_conv2d/ReadVariableOp", "shape": [3, 3, 728, 1], "dtype": "float32"}, {"name": "StatefulPartitionedCall/sequential_5/xception/block5_sepconv3/separable_conv2d/ReadVariableOp", "shape": [3, 3, 728, 1], "dtype": "float32"}, {"name": "StatefulPartitionedCall/sequential_5/xception/block4_sepconv1/separable_conv2d/ReadVariableOp", "shape": [3, 3, 256, 1], "dtype": "float32"}, {"name": "StatefulPartitionedCall/sequential_5/xception/block4_sepconv2/separable_conv2d/ReadVariableOp", "shape": [3, 3, 728, 1], "dtype": "float32"}, {"name": "StatefulPartitionedCall/sequential_5/xception/block3_sepconv1/separable_conv2d/ReadVariableOp", "shape": [3, 3, 128, 1], "dtype": "float32"}, {"name": "StatefulPartitionedCall/sequential_5/xception/block3_sepconv2/separable_conv2d/ReadVariableOp", "shape": [3, 3, 256, 1], "dtype": "float32"}, {"name": "StatefulPartitionedCall/sequential_5/xception/block2_sepconv1/separable_conv2d/ReadVariableOp", "shape": [3, 3, 64, 1], "dtype": "float32"}, {"name": "StatefulPartitionedCall/sequential_5/xception/block2_sepconv2/separable_conv2d/ReadVariableOp", "shape": [3, 3, 128, 1], "dtype": "float32"}, {"name": "StatefulPartitionedCall/sequential_5/xception/block14_sepconv1/separable_conv2d/ReadVariableOp", "shape": [3, 3, 1024, 1], "dtype": "float32"}, {"name": "StatefulPartitionedCall/sequential_5/xception/block14_sepconv2/separable_conv2d/ReadVariableOp", "shape": [3, 3, 1536, 1], "dtype": "float32"}, {"name": "StatefulPartitionedCall/sequential_5/xception/global_max_pooling2d_1/Max/reduction_indices", "shape": [2], "dtype": "int32"}, {"name": "StatefulPartitionedCall/sequential_5/dense_11/MatMul/ReadVariableOp", "shape": [2048, 1024], "dtype": "float32"}, {"name": "StatefulPartitionedCall/sequential_5/dense_11/BiasAdd/ReadVariableOp", "shape": [1024], "dtype": "float32"}, {"name": "StatefulPartitionedCall/sequential_5/dense_12/MatMul/ReadVariableOp", "shape": [1024, 85], "dtype": "float32"}, {"name": "StatefulPartitionedCall/sequential_5/dense_12/BiasAdd/ReadVariableOp", "shape": [85], "dtype": "float32"}, {"name": "StatefulPartitionedCall/sequential_5/xception/block1_conv1/Conv2D_weights", "shape": [3, 3, 3, 32], "dtype": "float32"}, {"name": "StatefulPartitionedCall/sequential_5/xception/block11_sepconv2/separable_conv2d_weights", "shape": [1, 1, 728, 728], "dtype": "float32"}, {"name": "StatefulPartitionedCall/sequential_5/xception/block1_conv1/Conv2D_bn_offset", "shape": [32], "dtype": "float32"}, {"name": "StatefulPartitionedCall/sequential_5/xception/block1_conv2/Conv2D_weights", "shape": [3, 3, 32, 64], "dtype": "float32"}, {"name": "StatefulPartitionedCall/sequential_5/xception/block11_sepconv2/separable_conv2d_bn_offset", "shape": [728], "dtype": "float32"}, {"name": "StatefulPartitionedCall/sequential_5/xception/block1_conv2/Conv2D_bn_offset", "shape": [64], "dtype": "float32"}, {"name": "StatefulPartitionedCall/sequential_5/xception/block14_sepconv1/separable_conv2d_weights", "shape": [1, 1, 1024, 1536], "dtype": "float32"}, {"name": "StatefulPartitionedCall/sequential_5/xception/conv2d_4/Conv2D_weights", "shape": [1, 1, 64, 128], "dtype": "float32"}, {"name": "StatefulPartitionedCall/sequential_5/xception/conv2d_4/Conv2D_bn_offset", "shape": [128], "dtype": "float32"}, {"name": "StatefulPartitionedCall/sequential_5/xception/block2_sepconv1/separable_conv2d_weights", "shape": [1, 1, 64, 128], "dtype": "float32"}, {"name": "StatefulPartitionedCall/sequential_5/xception/block2_sepconv1/separable_conv2d_bn_offset", "shape": [128], "dtype": "float32"}, {"name": "StatefulPartitionedCall/sequential_5/xception/block11_sepconv3/separable_conv2d_weights", "shape": [1, 1, 728, 728], "dtype": "float32"}, {"name": "StatefulPartitionedCall/sequential_5/xception/block2_sepconv2/separable_conv2d_weights", "shape": [1, 1, 128, 128], "dtype": "float32"}, {"name": "StatefulPartitionedCall/sequential_5/xception/block2_sepconv2/separable_conv2d_bn_offset", "shape": [128], "dtype": "float32"}, {"name": "StatefulPartitionedCall/sequential_5/xception/conv2d_5/Conv2D_weights", "shape": [1, 1, 128, 256], "dtype": "float32"}, {"name": "StatefulPartitionedCall/sequential_5/xception/block11_sepconv3/separable_conv2d_bn_offset", "shape": [728], "dtype": "float32"}, {"name": "StatefulPartitionedCall/sequential_5/xception/conv2d_5/Conv2D_bn_offset", "shape": [256], "dtype": "float32"}, {"name": "StatefulPartitionedCall/sequential_5/xception/block3_sepconv1/separable_conv2d_weights", "shape": [1, 1, 128, 256], "dtype": "float32"}, {"name": "StatefulPartitionedCall/sequential_5/xception/block3_sepconv1/separable_conv2d_bn_offset", "shape": [256], "dtype": "float32"}, {"name": "StatefulPartitionedCall/sequential_5/xception/block3_sepconv2/separable_conv2d_weights", "shape": [1, 1, 256, 256], "dtype": "float32"}, {"name": "StatefulPartitionedCall/sequential_5/xception/block3_sepconv2/separable_conv2d_bn_offset", "shape": [256], "dtype": "float32"}, {"name": "StatefulPartitionedCall/sequential_5/xception/conv2d_6/Conv2D_weights", "shape": [1, 1, 256, 728], "dtype": "float32"}, {"name": "StatefulPartitionedCall/sequential_5/xception/conv2d_6/Conv2D_bn_offset", "shape": [728], "dtype": "float32"}, {"name": "StatefulPartitionedCall/sequential_5/xception/block4_sepconv1/separable_conv2d_weights", "shape": [1, 1, 256, 728], "dtype": "float32"}, {"name": "StatefulPartitionedCall/sequential_5/xception/block12_sepconv1/separable_conv2d_weights", "shape": [1, 1, 728, 728], "dtype": "float32"}, {"name": "StatefulPartitionedCall/sequential_5/xception/block4_sepconv1/separable_conv2d_bn_offset", "shape": [728], "dtype": "float32"}, {"name": "StatefulPartitionedCall/sequential_5/xception/block14_sepconv1/separable_conv2d_bn_offset", "shape": [1536], "dtype": "float32"}, {"name": "StatefulPartitionedCall/sequential_5/xception/block4_sepconv2/separable_conv2d_weights", "shape": [1, 1, 728, 728], "dtype": "float32"}, {"name": "StatefulPartitionedCall/sequential_5/xception/block12_sepconv1/separable_conv2d_bn_offset", "shape": [728], "dtype": "float32"}, {"name": "StatefulPartitionedCall/sequential_5/xception/block4_sepconv2/separable_conv2d_bn_offset", "shape": [728], "dtype": "float32"}, {"name": "StatefulPartitionedCall/sequential_5/xception/block5_sepconv1/separable_conv2d_weights", "shape": [1, 1, 728, 728], "dtype": "float32"}, {"name": "StatefulPartitionedCall/sequential_5/xception/block5_sepconv1/separable_conv2d_bn_offset", "shape": [728], "dtype": "float32"}, {"name": "StatefulPartitionedCall/sequential_5/xception/block5_sepconv2/separable_conv2d_weights", "shape": [1, 1, 728, 728], "dtype": "float32"}, {"name": "StatefulPartitionedCall/sequential_5/xception/block5_sepconv2/separable_conv2d_bn_offset", "shape": [728], "dtype": "float32"}, {"name": "StatefulPartitionedCall/sequential_5/xception/block12_sepconv2/separable_conv2d_weights", "shape": [1, 1, 728, 728], "dtype": "float32"}, {"name": "StatefulPartitionedCall/sequential_5/xception/block5_sepconv3/separable_conv2d_weights", "shape": [1, 1, 728, 728], "dtype": "float32"}, {"name": "StatefulPartitionedCall/sequential_5/xception/block5_sepconv3/separable_conv2d_bn_offset", "shape": [728], "dtype": "float32"}, {"name": "StatefulPartitionedCall/sequential_5/xception/block6_sepconv1/separable_conv2d_weights", "shape": [1, 1, 728, 728], "dtype": "float32"}, {"name": "StatefulPartitionedCall/sequential_5/xception/block12_sepconv2/separable_conv2d_bn_offset", "shape": [728], "dtype": "float32"}, {"name": "StatefulPartitionedCall/sequential_5/xception/block6_sepconv1/separable_conv2d_bn_offset", "shape": [728], "dtype": "float32"}, {"name": "StatefulPartitionedCall/sequential_5/xception/block6_sepconv2/separable_conv2d_weights", "shape": [1, 1, 728, 728], "dtype": "float32"}, {"name": "StatefulPartitionedCall/sequential_5/xception/block6_sepconv2/separable_conv2d_bn_offset", "shape": [728], "dtype": "float32"}, {"name": "StatefulPartitionedCall/sequential_5/xception/block6_sepconv3/separable_conv2d_weights", "shape": [1, 1, 728, 728], "dtype": "float32"}, {"name": "StatefulPartitionedCall/sequential_5/xception/block12_sepconv3/separable_conv2d_weights", "shape": [1, 1, 728, 728], "dtype": "float32"}, {"name": "StatefulPartitionedCall/sequential_5/xception/block6_sepconv3/separable_conv2d_bn_offset", "shape": [728], "dtype": "float32"}, {"name": "StatefulPartitionedCall/sequential_5/xception/block7_sepconv1/separable_conv2d_weights", "shape": [1, 1, 728, 728], "dtype": "float32"}, {"name": "StatefulPartitionedCall/sequential_5/xception/block14_sepconv2/separable_conv2d_weights", "shape": [1, 1, 1536, 2048], "dtype": "float32"}, {"name": "StatefulPartitionedCall/sequential_5/xception/block7_sepconv1/separable_conv2d_bn_offset", "shape": [728], "dtype": "float32"}, {"name": "StatefulPartitionedCall/sequential_5/xception/block12_sepconv3/separable_conv2d_bn_offset", "shape": [728], "dtype": "float32"}, {"name": "StatefulPartitionedCall/sequential_5/xception/block7_sepconv2/separable_conv2d_weights", "shape": [1, 1, 728, 728], "dtype": "float32"}, {"name": "StatefulPartitionedCall/sequential_5/xception/block7_sepconv2/separable_conv2d_bn_offset", "shape": [728], "dtype": "float32"}, {"name": "StatefulPartitionedCall/sequential_5/xception/block7_sepconv3/separable_conv2d_weights", "shape": [1, 1, 728, 728], "dtype": "float32"}, {"name": "StatefulPartitionedCall/sequential_5/xception/block7_sepconv3/separable_conv2d_bn_offset", "shape": [728], "dtype": "float32"}, {"name": "StatefulPartitionedCall/sequential_5/xception/block8_sepconv1/separable_conv2d_weights", "shape": [1, 1, 728, 728], "dtype": "float32"}, {"name": "StatefulPartitionedCall/sequential_5/xception/block8_sepconv1/separable_conv2d_bn_offset", "shape": [728], "dtype": "float32"}, {"name": "StatefulPartitionedCall/sequential_5/xception/conv2d_7/Conv2D_weights", "shape": [1, 1, 728, 1024], "dtype": "float32"}, {"name": "StatefulPartitionedCall/sequential_5/xception/block8_sepconv2/separable_conv2d_weights", "shape": [1, 1, 728, 728], "dtype": "float32"}, {"name": "StatefulPartitionedCall/sequential_5/xception/block8_sepconv2/separable_conv2d_bn_offset", "shape": [728], "dtype": "float32"}, {"name": "StatefulPartitionedCall/sequential_5/xception/conv2d_7/Conv2D_bn_offset", "shape": [1024], "dtype": "float32"}, {"name": "StatefulPartitionedCall/sequential_5/xception/block8_sepconv3/separable_conv2d_weights", "shape": [1, 1, 728, 728], "dtype": "float32"}, {"name": "StatefulPartitionedCall/sequential_5/xception/block8_sepconv3/separable_conv2d_bn_offset", "shape": [728], "dtype": "float32"}, {"name": "StatefulPartitionedCall/sequential_5/xception/block9_sepconv1/separable_conv2d_weights", "shape": [1, 1, 728, 728], "dtype": "float32"}, {"name": "StatefulPartitionedCall/sequential_5/xception/block13_sepconv1/separable_conv2d_weights", "shape": [1, 1, 728, 728], "dtype": "float32"}, {"name": "StatefulPartitionedCall/sequential_5/xception/block9_sepconv1/separable_conv2d_bn_offset", "shape": [728], "dtype": "float32"}, {"name": "StatefulPartitionedCall/sequential_5/xception/block14_sepconv2/separable_conv2d_bn_offset", "shape": [2048], "dtype": "float32"}, {"name": "StatefulPartitionedCall/sequential_5/xception/block9_sepconv2/separable_conv2d_weights", "shape": [1, 1, 728, 728], "dtype": "float32"}, {"name": "StatefulPartitionedCall/sequential_5/xception/block13_sepconv1/separable_conv2d_bn_offset", "shape": [728], "dtype": "float32"}, {"name": "StatefulPartitionedCall/sequential_5/xception/block9_sepconv2/separable_conv2d_bn_offset", "shape": [728], "dtype": "float32"}, {"name": "StatefulPartitionedCall/sequential_5/xception/block9_sepconv3/separable_conv2d_weights", "shape": [1, 1, 728, 728], "dtype": "float32"}, {"name": "StatefulPartitionedCall/sequential_5/xception/block9_sepconv3/separable_conv2d_bn_offset", "shape": [728], "dtype": "float32"}, {"name": "StatefulPartitionedCall/sequential_5/xception/block10_sepconv1/separable_conv2d_weights", "shape": [1, 1, 728, 728], "dtype": "float32"}, {"name": "StatefulPartitionedCall/sequential_5/xception/block10_sepconv1/separable_conv2d_bn_offset", "shape": [728], "dtype": "float32"}, {"name": "StatefulPartitionedCall/sequential_5/xception/block13_sepconv2/separable_conv2d_weights", "shape": [1, 1, 728, 1024], "dtype": "float32"}, {"name": "StatefulPartitionedCall/sequential_5/xception/block10_sepconv2/separable_conv2d_weights", "shape": [1, 1, 728, 728], "dtype": "float32"}, {"name": "StatefulPartitionedCall/sequential_5/xception/block10_sepconv2/separable_conv2d_bn_offset", "shape": [728], "dtype": "float32"}, {"name": "StatefulPartitionedCall/sequential_5/xception/block13_sepconv2/separable_conv2d_bn_offset", "shape": [1024], "dtype": "float32"}, {"name": "StatefulPartitionedCall/sequential_5/xception/block10_sepconv3/separable_conv2d_weights", "shape": [1, 1, 728, 728], "dtype": "float32"}, {"name": "StatefulPartitionedCall/sequential_5/xception/block10_sepconv3/separable_conv2d_bn_offset", "shape": [728], "dtype": "float32"}, {"name": "StatefulPartitionedCall/sequential_5/xception/block11_sepconv1/separable_conv2d_weights", "shape": [1, 1, 728, 728], "dtype": "float32"}, {"name": "StatefulPartitionedCall/sequential_5/xception/block11_sepconv1/separable_conv2d_bn_offset", "shape": [728], "dtype": "float32"}]}]}